{
    "format": "layers-model",
    "generatedBy": "keras v2.3.1",
    "convertedBy": "TensorFlow.js Converter v2.0.0",
    "modelTopology": {
        "keras_version": "2.3.1",
        "backend": "tensorflow",
        "model_config": {
            "class_name": "Model",
            "config": {
                "name": "model_1",
                "layers": [
                    {
                        "name": "input_1",
                        "class_name": "InputLayer",
                        "config": {
                            "batch_input_shape": [
                                null,
                                256,
                                256,
                                3
                            ],
                            "dtype": "float32",
                            "sparse": false,
                            "name": "input_1"
                        },
                        "inbound_nodes": []
                    },
                    {
                        "name": "zero_padding2d_1",
                        "class_name": "ZeroPadding2D",
                        "config": {
                            "name": "zero_padding2d_1",
                            "trainable": true,
                            "dtype": "float32",
                            "padding": [
                                [
                                    0,
                                    1
                                ],
                                [
                                    0,
                                    1
                                ]
                            ],
                            "data_format": "channels_last"
                        },
                        "inbound_nodes": [
                            [
                                [
                                    "input_1",
                                    0,
                                    0,
                                    {}
                                ]
                            ]
                        ]
                    },
                    {
                        "name": "conv2d_1",
                        "class_name": "Conv2D",
                        "config": {
                            "name": "conv2d_1",
                            "trainable": true,
                            "dtype": "float32",
                            "filters": 32,
                            "kernel_size": [
                                3,
                                3
                            ],
                            "strides": [
                                2,
                                2
                            ],
                            "padding": "valid",
                            "data_format": "channels_last",
                            "dilation_rate": [
                                1,
                                1
                            ],
                            "activation": "linear",
                            "use_bias": true,
                            "kernel_initializer": {
                                "class_name": "VarianceScaling",
                                "config": {
                                    "scale": 1.0,
                                    "mode": "fan_avg",
                                    "distribution": "uniform",
                                    "seed": null
                                }
                            },
                            "bias_initializer": {
                                "class_name": "Zeros",
                                "config": {}
                            },
                            "kernel_regularizer": null,
                            "bias_regularizer": null,
                            "activity_regularizer": null,
                            "kernel_constraint": null,
                            "bias_constraint": null
                        },
                        "inbound_nodes": [
                            [
                                [
                                    "zero_padding2d_1",
                                    0,
                                    0,
                                    {}
                                ]
                            ]
                        ]
                    },
                    {
                        "name": "batch_normalization_1",
                        "class_name": "BatchNormalization",
                        "config": {
                            "name": "batch_normalization_1",
                            "trainable": true,
                            "dtype": "float32",
                            "axis": -1,
                            "momentum": 0.99,
                            "epsilon": 0.001,
                            "center": true,
                            "scale": true,
                            "beta_initializer": {
                                "class_name": "Zeros",
                                "config": {}
                            },
                            "gamma_initializer": {
                                "class_name": "Ones",
                                "config": {}
                            },
                            "moving_mean_initializer": {
                                "class_name": "Zeros",
                                "config": {}
                            },
                            "moving_variance_initializer": {
                                "class_name": "Ones",
                                "config": {}
                            },
                            "beta_regularizer": null,
                            "gamma_regularizer": null,
                            "beta_constraint": null,
                            "gamma_constraint": null
                        },
                        "inbound_nodes": [
                            [
                                [
                                    "conv2d_1",
                                    0,
                                    0,
                                    {}
                                ]
                            ]
                        ]
                    },
                    {
                        "name": "re_lu_1",
                        "class_name": "ReLU",
                        "config": {
                            "name": "re_lu_1",
                            "trainable": true,
                            "dtype": "float32",
                            "max_value": null,
                            "negative_slope": 0.0,
                            "threshold": 0.0
                        },
                        "inbound_nodes": [
                            [
                                [
                                    "batch_normalization_1",
                                    0,
                                    0,
                                    {}
                                ]
                            ]
                        ]
                    },
                    {
                        "name": "depthwise_conv2d_1",
                        "class_name": "DepthwiseConv2D",
                        "config": {
                            "name": "depthwise_conv2d_1",
                            "trainable": true,
                            "dtype": "float32",
                            "kernel_size": [
                                3,
                                3
                            ],
                            "strides": [
                                1,
                                1
                            ],
                            "padding": "same",
                            "data_format": "channels_last",
                            "dilation_rate": [
                                1,
                                1
                            ],
                            "activation": "linear",
                            "use_bias": true,
                            "bias_initializer": {
                                "class_name": "Zeros",
                                "config": {}
                            },
                            "bias_regularizer": null,
                            "activity_regularizer": null,
                            "bias_constraint": null,
                            "depth_multiplier": 1,
                            "depthwise_initializer": {
                                "class_name": "VarianceScaling",
                                "config": {
                                    "scale": 1.0,
                                    "mode": "fan_avg",
                                    "distribution": "uniform",
                                    "seed": null
                                }
                            },
                            "depthwise_regularizer": null,
                            "depthwise_constraint": null
                        },
                        "inbound_nodes": [
                            [
                                [
                                    "re_lu_1",
                                    0,
                                    0,
                                    {}
                                ]
                            ]
                        ]
                    },
                    {
                        "name": "batch_normalization_2",
                        "class_name": "BatchNormalization",
                        "config": {
                            "name": "batch_normalization_2",
                            "trainable": true,
                            "dtype": "float32",
                            "axis": -1,
                            "momentum": 0.99,
                            "epsilon": 0.001,
                            "center": true,
                            "scale": true,
                            "beta_initializer": {
                                "class_name": "Zeros",
                                "config": {}
                            },
                            "gamma_initializer": {
                                "class_name": "Ones",
                                "config": {}
                            },
                            "moving_mean_initializer": {
                                "class_name": "Zeros",
                                "config": {}
                            },
                            "moving_variance_initializer": {
                                "class_name": "Ones",
                                "config": {}
                            },
                            "beta_regularizer": null,
                            "gamma_regularizer": null,
                            "beta_constraint": null,
                            "gamma_constraint": null
                        },
                        "inbound_nodes": [
                            [
                                [
                                    "depthwise_conv2d_1",
                                    0,
                                    0,
                                    {}
                                ]
                            ]
                        ]
                    },
                    {
                        "name": "re_lu_2",
                        "class_name": "ReLU",
                        "config": {
                            "name": "re_lu_2",
                            "trainable": true,
                            "dtype": "float32",
                            "max_value": null,
                            "negative_slope": 0.0,
                            "threshold": 0.0
                        },
                        "inbound_nodes": [
                            [
                                [
                                    "batch_normalization_2",
                                    0,
                                    0,
                                    {}
                                ]
                            ]
                        ]
                    },
                    {
                        "name": "conv2d_2",
                        "class_name": "Conv2D",
                        "config": {
                            "name": "conv2d_2",
                            "trainable": true,
                            "dtype": "float32",
                            "filters": 64,
                            "kernel_size": [
                                1,
                                1
                            ],
                            "strides": [
                                1,
                                1
                            ],
                            "padding": "same",
                            "data_format": "channels_last",
                            "dilation_rate": [
                                1,
                                1
                            ],
                            "activation": "linear",
                            "use_bias": true,
                            "kernel_initializer": {
                                "class_name": "VarianceScaling",
                                "config": {
                                    "scale": 1.0,
                                    "mode": "fan_avg",
                                    "distribution": "uniform",
                                    "seed": null
                                }
                            },
                            "bias_initializer": {
                                "class_name": "Zeros",
                                "config": {}
                            },
                            "kernel_regularizer": null,
                            "bias_regularizer": null,
                            "activity_regularizer": null,
                            "kernel_constraint": null,
                            "bias_constraint": null
                        },
                        "inbound_nodes": [
                            [
                                [
                                    "re_lu_2",
                                    0,
                                    0,
                                    {}
                                ]
                            ]
                        ]
                    },
                    {
                        "name": "batch_normalization_3",
                        "class_name": "BatchNormalization",
                        "config": {
                            "name": "batch_normalization_3",
                            "trainable": true,
                            "dtype": "float32",
                            "axis": -1,
                            "momentum": 0.99,
                            "epsilon": 0.001,
                            "center": true,
                            "scale": true,
                            "beta_initializer": {
                                "class_name": "Zeros",
                                "config": {}
                            },
                            "gamma_initializer": {
                                "class_name": "Ones",
                                "config": {}
                            },
                            "moving_mean_initializer": {
                                "class_name": "Zeros",
                                "config": {}
                            },
                            "moving_variance_initializer": {
                                "class_name": "Ones",
                                "config": {}
                            },
                            "beta_regularizer": null,
                            "gamma_regularizer": null,
                            "beta_constraint": null,
                            "gamma_constraint": null
                        },
                        "inbound_nodes": [
                            [
                                [
                                    "conv2d_2",
                                    0,
                                    0,
                                    {}
                                ]
                            ]
                        ]
                    },
                    {
                        "name": "re_lu_3",
                        "class_name": "ReLU",
                        "config": {
                            "name": "re_lu_3",
                            "trainable": true,
                            "dtype": "float32",
                            "max_value": null,
                            "negative_slope": 0.0,
                            "threshold": 0.0
                        },
                        "inbound_nodes": [
                            [
                                [
                                    "batch_normalization_3",
                                    0,
                                    0,
                                    {}
                                ]
                            ]
                        ]
                    },
                    {
                        "name": "zero_padding2d_2",
                        "class_name": "ZeroPadding2D",
                        "config": {
                            "name": "zero_padding2d_2",
                            "trainable": true,
                            "dtype": "float32",
                            "padding": [
                                [
                                    0,
                                    1
                                ],
                                [
                                    0,
                                    1
                                ]
                            ],
                            "data_format": "channels_last"
                        },
                        "inbound_nodes": [
                            [
                                [
                                    "re_lu_3",
                                    0,
                                    0,
                                    {}
                                ]
                            ]
                        ]
                    },
                    {
                        "name": "depthwise_conv2d_2",
                        "class_name": "DepthwiseConv2D",
                        "config": {
                            "name": "depthwise_conv2d_2",
                            "trainable": true,
                            "dtype": "float32",
                            "kernel_size": [
                                3,
                                3
                            ],
                            "strides": [
                                2,
                                2
                            ],
                            "padding": "valid",
                            "data_format": "channels_last",
                            "dilation_rate": [
                                1,
                                1
                            ],
                            "activation": "linear",
                            "use_bias": true,
                            "bias_initializer": {
                                "class_name": "Zeros",
                                "config": {}
                            },
                            "bias_regularizer": null,
                            "activity_regularizer": null,
                            "bias_constraint": null,
                            "depth_multiplier": 1,
                            "depthwise_initializer": {
                                "class_name": "VarianceScaling",
                                "config": {
                                    "scale": 1.0,
                                    "mode": "fan_avg",
                                    "distribution": "uniform",
                                    "seed": null
                                }
                            },
                            "depthwise_regularizer": null,
                            "depthwise_constraint": null
                        },
                        "inbound_nodes": [
                            [
                                [
                                    "zero_padding2d_2",
                                    0,
                                    0,
                                    {}
                                ]
                            ]
                        ]
                    },
                    {
                        "name": "batch_normalization_4",
                        "class_name": "BatchNormalization",
                        "config": {
                            "name": "batch_normalization_4",
                            "trainable": true,
                            "dtype": "float32",
                            "axis": -1,
                            "momentum": 0.99,
                            "epsilon": 0.001,
                            "center": true,
                            "scale": true,
                            "beta_initializer": {
                                "class_name": "Zeros",
                                "config": {}
                            },
                            "gamma_initializer": {
                                "class_name": "Ones",
                                "config": {}
                            },
                            "moving_mean_initializer": {
                                "class_name": "Zeros",
                                "config": {}
                            },
                            "moving_variance_initializer": {
                                "class_name": "Ones",
                                "config": {}
                            },
                            "beta_regularizer": null,
                            "gamma_regularizer": null,
                            "beta_constraint": null,
                            "gamma_constraint": null
                        },
                        "inbound_nodes": [
                            [
                                [
                                    "depthwise_conv2d_2",
                                    0,
                                    0,
                                    {}
                                ]
                            ]
                        ]
                    },
                    {
                        "name": "re_lu_4",
                        "class_name": "ReLU",
                        "config": {
                            "name": "re_lu_4",
                            "trainable": true,
                            "dtype": "float32",
                            "max_value": null,
                            "negative_slope": 0.0,
                            "threshold": 0.0
                        },
                        "inbound_nodes": [
                            [
                                [
                                    "batch_normalization_4",
                                    0,
                                    0,
                                    {}
                                ]
                            ]
                        ]
                    },
                    {
                        "name": "conv2d_3",
                        "class_name": "Conv2D",
                        "config": {
                            "name": "conv2d_3",
                            "trainable": true,
                            "dtype": "float32",
                            "filters": 128,
                            "kernel_size": [
                                1,
                                1
                            ],
                            "strides": [
                                1,
                                1
                            ],
                            "padding": "same",
                            "data_format": "channels_last",
                            "dilation_rate": [
                                1,
                                1
                            ],
                            "activation": "linear",
                            "use_bias": true,
                            "kernel_initializer": {
                                "class_name": "VarianceScaling",
                                "config": {
                                    "scale": 1.0,
                                    "mode": "fan_avg",
                                    "distribution": "uniform",
                                    "seed": null
                                }
                            },
                            "bias_initializer": {
                                "class_name": "Zeros",
                                "config": {}
                            },
                            "kernel_regularizer": null,
                            "bias_regularizer": null,
                            "activity_regularizer": null,
                            "kernel_constraint": null,
                            "bias_constraint": null
                        },
                        "inbound_nodes": [
                            [
                                [
                                    "re_lu_4",
                                    0,
                                    0,
                                    {}
                                ]
                            ]
                        ]
                    },
                    {
                        "name": "batch_normalization_5",
                        "class_name": "BatchNormalization",
                        "config": {
                            "name": "batch_normalization_5",
                            "trainable": true,
                            "dtype": "float32",
                            "axis": -1,
                            "momentum": 0.99,
                            "epsilon": 0.001,
                            "center": true,
                            "scale": true,
                            "beta_initializer": {
                                "class_name": "Zeros",
                                "config": {}
                            },
                            "gamma_initializer": {
                                "class_name": "Ones",
                                "config": {}
                            },
                            "moving_mean_initializer": {
                                "class_name": "Zeros",
                                "config": {}
                            },
                            "moving_variance_initializer": {
                                "class_name": "Ones",
                                "config": {}
                            },
                            "beta_regularizer": null,
                            "gamma_regularizer": null,
                            "beta_constraint": null,
                            "gamma_constraint": null
                        },
                        "inbound_nodes": [
                            [
                                [
                                    "conv2d_3",
                                    0,
                                    0,
                                    {}
                                ]
                            ]
                        ]
                    },
                    {
                        "name": "re_lu_5",
                        "class_name": "ReLU",
                        "config": {
                            "name": "re_lu_5",
                            "trainable": true,
                            "dtype": "float32",
                            "max_value": null,
                            "negative_slope": 0.0,
                            "threshold": 0.0
                        },
                        "inbound_nodes": [
                            [
                                [
                                    "batch_normalization_5",
                                    0,
                                    0,
                                    {}
                                ]
                            ]
                        ]
                    },
                    {
                        "name": "depthwise_conv2d_3",
                        "class_name": "DepthwiseConv2D",
                        "config": {
                            "name": "depthwise_conv2d_3",
                            "trainable": true,
                            "dtype": "float32",
                            "kernel_size": [
                                3,
                                3
                            ],
                            "strides": [
                                1,
                                1
                            ],
                            "padding": "same",
                            "data_format": "channels_last",
                            "dilation_rate": [
                                1,
                                1
                            ],
                            "activation": "linear",
                            "use_bias": true,
                            "bias_initializer": {
                                "class_name": "Zeros",
                                "config": {}
                            },
                            "bias_regularizer": null,
                            "activity_regularizer": null,
                            "bias_constraint": null,
                            "depth_multiplier": 1,
                            "depthwise_initializer": {
                                "class_name": "VarianceScaling",
                                "config": {
                                    "scale": 1.0,
                                    "mode": "fan_avg",
                                    "distribution": "uniform",
                                    "seed": null
                                }
                            },
                            "depthwise_regularizer": null,
                            "depthwise_constraint": null
                        },
                        "inbound_nodes": [
                            [
                                [
                                    "re_lu_5",
                                    0,
                                    0,
                                    {}
                                ]
                            ]
                        ]
                    },
                    {
                        "name": "batch_normalization_6",
                        "class_name": "BatchNormalization",
                        "config": {
                            "name": "batch_normalization_6",
                            "trainable": true,
                            "dtype": "float32",
                            "axis": -1,
                            "momentum": 0.99,
                            "epsilon": 0.001,
                            "center": true,
                            "scale": true,
                            "beta_initializer": {
                                "class_name": "Zeros",
                                "config": {}
                            },
                            "gamma_initializer": {
                                "class_name": "Ones",
                                "config": {}
                            },
                            "moving_mean_initializer": {
                                "class_name": "Zeros",
                                "config": {}
                            },
                            "moving_variance_initializer": {
                                "class_name": "Ones",
                                "config": {}
                            },
                            "beta_regularizer": null,
                            "gamma_regularizer": null,
                            "beta_constraint": null,
                            "gamma_constraint": null
                        },
                        "inbound_nodes": [
                            [
                                [
                                    "depthwise_conv2d_3",
                                    0,
                                    0,
                                    {}
                                ]
                            ]
                        ]
                    },
                    {
                        "name": "re_lu_6",
                        "class_name": "ReLU",
                        "config": {
                            "name": "re_lu_6",
                            "trainable": true,
                            "dtype": "float32",
                            "max_value": null,
                            "negative_slope": 0.0,
                            "threshold": 0.0
                        },
                        "inbound_nodes": [
                            [
                                [
                                    "batch_normalization_6",
                                    0,
                                    0,
                                    {}
                                ]
                            ]
                        ]
                    },
                    {
                        "name": "conv2d_4",
                        "class_name": "Conv2D",
                        "config": {
                            "name": "conv2d_4",
                            "trainable": true,
                            "dtype": "float32",
                            "filters": 128,
                            "kernel_size": [
                                1,
                                1
                            ],
                            "strides": [
                                1,
                                1
                            ],
                            "padding": "same",
                            "data_format": "channels_last",
                            "dilation_rate": [
                                1,
                                1
                            ],
                            "activation": "linear",
                            "use_bias": true,
                            "kernel_initializer": {
                                "class_name": "VarianceScaling",
                                "config": {
                                    "scale": 1.0,
                                    "mode": "fan_avg",
                                    "distribution": "uniform",
                                    "seed": null
                                }
                            },
                            "bias_initializer": {
                                "class_name": "Zeros",
                                "config": {}
                            },
                            "kernel_regularizer": null,
                            "bias_regularizer": null,
                            "activity_regularizer": null,
                            "kernel_constraint": null,
                            "bias_constraint": null
                        },
                        "inbound_nodes": [
                            [
                                [
                                    "re_lu_6",
                                    0,
                                    0,
                                    {}
                                ]
                            ]
                        ]
                    },
                    {
                        "name": "batch_normalization_7",
                        "class_name": "BatchNormalization",
                        "config": {
                            "name": "batch_normalization_7",
                            "trainable": true,
                            "dtype": "float32",
                            "axis": -1,
                            "momentum": 0.99,
                            "epsilon": 0.001,
                            "center": true,
                            "scale": true,
                            "beta_initializer": {
                                "class_name": "Zeros",
                                "config": {}
                            },
                            "gamma_initializer": {
                                "class_name": "Ones",
                                "config": {}
                            },
                            "moving_mean_initializer": {
                                "class_name": "Zeros",
                                "config": {}
                            },
                            "moving_variance_initializer": {
                                "class_name": "Ones",
                                "config": {}
                            },
                            "beta_regularizer": null,
                            "gamma_regularizer": null,
                            "beta_constraint": null,
                            "gamma_constraint": null
                        },
                        "inbound_nodes": [
                            [
                                [
                                    "conv2d_4",
                                    0,
                                    0,
                                    {}
                                ]
                            ]
                        ]
                    },
                    {
                        "name": "re_lu_7",
                        "class_name": "ReLU",
                        "config": {
                            "name": "re_lu_7",
                            "trainable": true,
                            "dtype": "float32",
                            "max_value": null,
                            "negative_slope": 0.0,
                            "threshold": 0.0
                        },
                        "inbound_nodes": [
                            [
                                [
                                    "batch_normalization_7",
                                    0,
                                    0,
                                    {}
                                ]
                            ]
                        ]
                    },
                    {
                        "name": "zero_padding2d_3",
                        "class_name": "ZeroPadding2D",
                        "config": {
                            "name": "zero_padding2d_3",
                            "trainable": true,
                            "dtype": "float32",
                            "padding": [
                                [
                                    0,
                                    1
                                ],
                                [
                                    0,
                                    1
                                ]
                            ],
                            "data_format": "channels_last"
                        },
                        "inbound_nodes": [
                            [
                                [
                                    "re_lu_7",
                                    0,
                                    0,
                                    {}
                                ]
                            ]
                        ]
                    },
                    {
                        "name": "depthwise_conv2d_4",
                        "class_name": "DepthwiseConv2D",
                        "config": {
                            "name": "depthwise_conv2d_4",
                            "trainable": true,
                            "dtype": "float32",
                            "kernel_size": [
                                3,
                                3
                            ],
                            "strides": [
                                2,
                                2
                            ],
                            "padding": "valid",
                            "data_format": "channels_last",
                            "dilation_rate": [
                                1,
                                1
                            ],
                            "activation": "linear",
                            "use_bias": true,
                            "bias_initializer": {
                                "class_name": "Zeros",
                                "config": {}
                            },
                            "bias_regularizer": null,
                            "activity_regularizer": null,
                            "bias_constraint": null,
                            "depth_multiplier": 1,
                            "depthwise_initializer": {
                                "class_name": "VarianceScaling",
                                "config": {
                                    "scale": 1.0,
                                    "mode": "fan_avg",
                                    "distribution": "uniform",
                                    "seed": null
                                }
                            },
                            "depthwise_regularizer": null,
                            "depthwise_constraint": null
                        },
                        "inbound_nodes": [
                            [
                                [
                                    "zero_padding2d_3",
                                    0,
                                    0,
                                    {}
                                ]
                            ]
                        ]
                    },
                    {
                        "name": "batch_normalization_8",
                        "class_name": "BatchNormalization",
                        "config": {
                            "name": "batch_normalization_8",
                            "trainable": true,
                            "dtype": "float32",
                            "axis": -1,
                            "momentum": 0.99,
                            "epsilon": 0.001,
                            "center": true,
                            "scale": true,
                            "beta_initializer": {
                                "class_name": "Zeros",
                                "config": {}
                            },
                            "gamma_initializer": {
                                "class_name": "Ones",
                                "config": {}
                            },
                            "moving_mean_initializer": {
                                "class_name": "Zeros",
                                "config": {}
                            },
                            "moving_variance_initializer": {
                                "class_name": "Ones",
                                "config": {}
                            },
                            "beta_regularizer": null,
                            "gamma_regularizer": null,
                            "beta_constraint": null,
                            "gamma_constraint": null
                        },
                        "inbound_nodes": [
                            [
                                [
                                    "depthwise_conv2d_4",
                                    0,
                                    0,
                                    {}
                                ]
                            ]
                        ]
                    },
                    {
                        "name": "re_lu_8",
                        "class_name": "ReLU",
                        "config": {
                            "name": "re_lu_8",
                            "trainable": true,
                            "dtype": "float32",
                            "max_value": null,
                            "negative_slope": 0.0,
                            "threshold": 0.0
                        },
                        "inbound_nodes": [
                            [
                                [
                                    "batch_normalization_8",
                                    0,
                                    0,
                                    {}
                                ]
                            ]
                        ]
                    },
                    {
                        "name": "conv2d_5",
                        "class_name": "Conv2D",
                        "config": {
                            "name": "conv2d_5",
                            "trainable": true,
                            "dtype": "float32",
                            "filters": 256,
                            "kernel_size": [
                                1,
                                1
                            ],
                            "strides": [
                                1,
                                1
                            ],
                            "padding": "same",
                            "data_format": "channels_last",
                            "dilation_rate": [
                                1,
                                1
                            ],
                            "activation": "linear",
                            "use_bias": true,
                            "kernel_initializer": {
                                "class_name": "VarianceScaling",
                                "config": {
                                    "scale": 1.0,
                                    "mode": "fan_avg",
                                    "distribution": "uniform",
                                    "seed": null
                                }
                            },
                            "bias_initializer": {
                                "class_name": "Zeros",
                                "config": {}
                            },
                            "kernel_regularizer": null,
                            "bias_regularizer": null,
                            "activity_regularizer": null,
                            "kernel_constraint": null,
                            "bias_constraint": null
                        },
                        "inbound_nodes": [
                            [
                                [
                                    "re_lu_8",
                                    0,
                                    0,
                                    {}
                                ]
                            ]
                        ]
                    },
                    {
                        "name": "batch_normalization_9",
                        "class_name": "BatchNormalization",
                        "config": {
                            "name": "batch_normalization_9",
                            "trainable": true,
                            "dtype": "float32",
                            "axis": -1,
                            "momentum": 0.99,
                            "epsilon": 0.001,
                            "center": true,
                            "scale": true,
                            "beta_initializer": {
                                "class_name": "Zeros",
                                "config": {}
                            },
                            "gamma_initializer": {
                                "class_name": "Ones",
                                "config": {}
                            },
                            "moving_mean_initializer": {
                                "class_name": "Zeros",
                                "config": {}
                            },
                            "moving_variance_initializer": {
                                "class_name": "Ones",
                                "config": {}
                            },
                            "beta_regularizer": null,
                            "gamma_regularizer": null,
                            "beta_constraint": null,
                            "gamma_constraint": null
                        },
                        "inbound_nodes": [
                            [
                                [
                                    "conv2d_5",
                                    0,
                                    0,
                                    {}
                                ]
                            ]
                        ]
                    },
                    {
                        "name": "re_lu_9",
                        "class_name": "ReLU",
                        "config": {
                            "name": "re_lu_9",
                            "trainable": true,
                            "dtype": "float32",
                            "max_value": null,
                            "negative_slope": 0.0,
                            "threshold": 0.0
                        },
                        "inbound_nodes": [
                            [
                                [
                                    "batch_normalization_9",
                                    0,
                                    0,
                                    {}
                                ]
                            ]
                        ]
                    },
                    {
                        "name": "depthwise_conv2d_5",
                        "class_name": "DepthwiseConv2D",
                        "config": {
                            "name": "depthwise_conv2d_5",
                            "trainable": true,
                            "dtype": "float32",
                            "kernel_size": [
                                3,
                                3
                            ],
                            "strides": [
                                1,
                                1
                            ],
                            "padding": "same",
                            "data_format": "channels_last",
                            "dilation_rate": [
                                1,
                                1
                            ],
                            "activation": "linear",
                            "use_bias": true,
                            "bias_initializer": {
                                "class_name": "Zeros",
                                "config": {}
                            },
                            "bias_regularizer": null,
                            "activity_regularizer": null,
                            "bias_constraint": null,
                            "depth_multiplier": 1,
                            "depthwise_initializer": {
                                "class_name": "VarianceScaling",
                                "config": {
                                    "scale": 1.0,
                                    "mode": "fan_avg",
                                    "distribution": "uniform",
                                    "seed": null
                                }
                            },
                            "depthwise_regularizer": null,
                            "depthwise_constraint": null
                        },
                        "inbound_nodes": [
                            [
                                [
                                    "re_lu_9",
                                    0,
                                    0,
                                    {}
                                ]
                            ]
                        ]
                    },
                    {
                        "name": "batch_normalization_10",
                        "class_name": "BatchNormalization",
                        "config": {
                            "name": "batch_normalization_10",
                            "trainable": true,
                            "dtype": "float32",
                            "axis": -1,
                            "momentum": 0.99,
                            "epsilon": 0.001,
                            "center": true,
                            "scale": true,
                            "beta_initializer": {
                                "class_name": "Zeros",
                                "config": {}
                            },
                            "gamma_initializer": {
                                "class_name": "Ones",
                                "config": {}
                            },
                            "moving_mean_initializer": {
                                "class_name": "Zeros",
                                "config": {}
                            },
                            "moving_variance_initializer": {
                                "class_name": "Ones",
                                "config": {}
                            },
                            "beta_regularizer": null,
                            "gamma_regularizer": null,
                            "beta_constraint": null,
                            "gamma_constraint": null
                        },
                        "inbound_nodes": [
                            [
                                [
                                    "depthwise_conv2d_5",
                                    0,
                                    0,
                                    {}
                                ]
                            ]
                        ]
                    },
                    {
                        "name": "re_lu_10",
                        "class_name": "ReLU",
                        "config": {
                            "name": "re_lu_10",
                            "trainable": true,
                            "dtype": "float32",
                            "max_value": null,
                            "negative_slope": 0.0,
                            "threshold": 0.0
                        },
                        "inbound_nodes": [
                            [
                                [
                                    "batch_normalization_10",
                                    0,
                                    0,
                                    {}
                                ]
                            ]
                        ]
                    },
                    {
                        "name": "conv2d_6",
                        "class_name": "Conv2D",
                        "config": {
                            "name": "conv2d_6",
                            "trainable": true,
                            "dtype": "float32",
                            "filters": 256,
                            "kernel_size": [
                                1,
                                1
                            ],
                            "strides": [
                                1,
                                1
                            ],
                            "padding": "same",
                            "data_format": "channels_last",
                            "dilation_rate": [
                                1,
                                1
                            ],
                            "activation": "linear",
                            "use_bias": true,
                            "kernel_initializer": {
                                "class_name": "VarianceScaling",
                                "config": {
                                    "scale": 1.0,
                                    "mode": "fan_avg",
                                    "distribution": "uniform",
                                    "seed": null
                                }
                            },
                            "bias_initializer": {
                                "class_name": "Zeros",
                                "config": {}
                            },
                            "kernel_regularizer": null,
                            "bias_regularizer": null,
                            "activity_regularizer": null,
                            "kernel_constraint": null,
                            "bias_constraint": null
                        },
                        "inbound_nodes": [
                            [
                                [
                                    "re_lu_10",
                                    0,
                                    0,
                                    {}
                                ]
                            ]
                        ]
                    },
                    {
                        "name": "batch_normalization_11",
                        "class_name": "BatchNormalization",
                        "config": {
                            "name": "batch_normalization_11",
                            "trainable": true,
                            "dtype": "float32",
                            "axis": -1,
                            "momentum": 0.99,
                            "epsilon": 0.001,
                            "center": true,
                            "scale": true,
                            "beta_initializer": {
                                "class_name": "Zeros",
                                "config": {}
                            },
                            "gamma_initializer": {
                                "class_name": "Ones",
                                "config": {}
                            },
                            "moving_mean_initializer": {
                                "class_name": "Zeros",
                                "config": {}
                            },
                            "moving_variance_initializer": {
                                "class_name": "Ones",
                                "config": {}
                            },
                            "beta_regularizer": null,
                            "gamma_regularizer": null,
                            "beta_constraint": null,
                            "gamma_constraint": null
                        },
                        "inbound_nodes": [
                            [
                                [
                                    "conv2d_6",
                                    0,
                                    0,
                                    {}
                                ]
                            ]
                        ]
                    },
                    {
                        "name": "re_lu_11",
                        "class_name": "ReLU",
                        "config": {
                            "name": "re_lu_11",
                            "trainable": true,
                            "dtype": "float32",
                            "max_value": null,
                            "negative_slope": 0.0,
                            "threshold": 0.0
                        },
                        "inbound_nodes": [
                            [
                                [
                                    "batch_normalization_11",
                                    0,
                                    0,
                                    {}
                                ]
                            ]
                        ]
                    },
                    {
                        "name": "zero_padding2d_4",
                        "class_name": "ZeroPadding2D",
                        "config": {
                            "name": "zero_padding2d_4",
                            "trainable": true,
                            "dtype": "float32",
                            "padding": [
                                [
                                    0,
                                    1
                                ],
                                [
                                    0,
                                    1
                                ]
                            ],
                            "data_format": "channels_last"
                        },
                        "inbound_nodes": [
                            [
                                [
                                    "re_lu_11",
                                    0,
                                    0,
                                    {}
                                ]
                            ]
                        ]
                    },
                    {
                        "name": "depthwise_conv2d_6",
                        "class_name": "DepthwiseConv2D",
                        "config": {
                            "name": "depthwise_conv2d_6",
                            "trainable": true,
                            "dtype": "float32",
                            "kernel_size": [
                                3,
                                3
                            ],
                            "strides": [
                                2,
                                2
                            ],
                            "padding": "valid",
                            "data_format": "channels_last",
                            "dilation_rate": [
                                1,
                                1
                            ],
                            "activation": "linear",
                            "use_bias": true,
                            "bias_initializer": {
                                "class_name": "Zeros",
                                "config": {}
                            },
                            "bias_regularizer": null,
                            "activity_regularizer": null,
                            "bias_constraint": null,
                            "depth_multiplier": 1,
                            "depthwise_initializer": {
                                "class_name": "VarianceScaling",
                                "config": {
                                    "scale": 1.0,
                                    "mode": "fan_avg",
                                    "distribution": "uniform",
                                    "seed": null
                                }
                            },
                            "depthwise_regularizer": null,
                            "depthwise_constraint": null
                        },
                        "inbound_nodes": [
                            [
                                [
                                    "zero_padding2d_4",
                                    0,
                                    0,
                                    {}
                                ]
                            ]
                        ]
                    },
                    {
                        "name": "batch_normalization_12",
                        "class_name": "BatchNormalization",
                        "config": {
                            "name": "batch_normalization_12",
                            "trainable": true,
                            "dtype": "float32",
                            "axis": -1,
                            "momentum": 0.99,
                            "epsilon": 0.001,
                            "center": true,
                            "scale": true,
                            "beta_initializer": {
                                "class_name": "Zeros",
                                "config": {}
                            },
                            "gamma_initializer": {
                                "class_name": "Ones",
                                "config": {}
                            },
                            "moving_mean_initializer": {
                                "class_name": "Zeros",
                                "config": {}
                            },
                            "moving_variance_initializer": {
                                "class_name": "Ones",
                                "config": {}
                            },
                            "beta_regularizer": null,
                            "gamma_regularizer": null,
                            "beta_constraint": null,
                            "gamma_constraint": null
                        },
                        "inbound_nodes": [
                            [
                                [
                                    "depthwise_conv2d_6",
                                    0,
                                    0,
                                    {}
                                ]
                            ]
                        ]
                    },
                    {
                        "name": "re_lu_12",
                        "class_name": "ReLU",
                        "config": {
                            "name": "re_lu_12",
                            "trainable": true,
                            "dtype": "float32",
                            "max_value": null,
                            "negative_slope": 0.0,
                            "threshold": 0.0
                        },
                        "inbound_nodes": [
                            [
                                [
                                    "batch_normalization_12",
                                    0,
                                    0,
                                    {}
                                ]
                            ]
                        ]
                    },
                    {
                        "name": "conv2d_7",
                        "class_name": "Conv2D",
                        "config": {
                            "name": "conv2d_7",
                            "trainable": true,
                            "dtype": "float32",
                            "filters": 512,
                            "kernel_size": [
                                1,
                                1
                            ],
                            "strides": [
                                1,
                                1
                            ],
                            "padding": "same",
                            "data_format": "channels_last",
                            "dilation_rate": [
                                1,
                                1
                            ],
                            "activation": "linear",
                            "use_bias": true,
                            "kernel_initializer": {
                                "class_name": "VarianceScaling",
                                "config": {
                                    "scale": 1.0,
                                    "mode": "fan_avg",
                                    "distribution": "uniform",
                                    "seed": null
                                }
                            },
                            "bias_initializer": {
                                "class_name": "Zeros",
                                "config": {}
                            },
                            "kernel_regularizer": null,
                            "bias_regularizer": null,
                            "activity_regularizer": null,
                            "kernel_constraint": null,
                            "bias_constraint": null
                        },
                        "inbound_nodes": [
                            [
                                [
                                    "re_lu_12",
                                    0,
                                    0,
                                    {}
                                ]
                            ]
                        ]
                    },
                    {
                        "name": "batch_normalization_13",
                        "class_name": "BatchNormalization",
                        "config": {
                            "name": "batch_normalization_13",
                            "trainable": true,
                            "dtype": "float32",
                            "axis": -1,
                            "momentum": 0.99,
                            "epsilon": 0.001,
                            "center": true,
                            "scale": true,
                            "beta_initializer": {
                                "class_name": "Zeros",
                                "config": {}
                            },
                            "gamma_initializer": {
                                "class_name": "Ones",
                                "config": {}
                            },
                            "moving_mean_initializer": {
                                "class_name": "Zeros",
                                "config": {}
                            },
                            "moving_variance_initializer": {
                                "class_name": "Ones",
                                "config": {}
                            },
                            "beta_regularizer": null,
                            "gamma_regularizer": null,
                            "beta_constraint": null,
                            "gamma_constraint": null
                        },
                        "inbound_nodes": [
                            [
                                [
                                    "conv2d_7",
                                    0,
                                    0,
                                    {}
                                ]
                            ]
                        ]
                    },
                    {
                        "name": "re_lu_13",
                        "class_name": "ReLU",
                        "config": {
                            "name": "re_lu_13",
                            "trainable": true,
                            "dtype": "float32",
                            "max_value": null,
                            "negative_slope": 0.0,
                            "threshold": 0.0
                        },
                        "inbound_nodes": [
                            [
                                [
                                    "batch_normalization_13",
                                    0,
                                    0,
                                    {}
                                ]
                            ]
                        ]
                    },
                    {
                        "name": "depthwise_conv2d_7",
                        "class_name": "DepthwiseConv2D",
                        "config": {
                            "name": "depthwise_conv2d_7",
                            "trainable": true,
                            "dtype": "float32",
                            "kernel_size": [
                                3,
                                3
                            ],
                            "strides": [
                                1,
                                1
                            ],
                            "padding": "same",
                            "data_format": "channels_last",
                            "dilation_rate": [
                                1,
                                1
                            ],
                            "activation": "linear",
                            "use_bias": true,
                            "bias_initializer": {
                                "class_name": "Zeros",
                                "config": {}
                            },
                            "bias_regularizer": null,
                            "activity_regularizer": null,
                            "bias_constraint": null,
                            "depth_multiplier": 1,
                            "depthwise_initializer": {
                                "class_name": "VarianceScaling",
                                "config": {
                                    "scale": 1.0,
                                    "mode": "fan_avg",
                                    "distribution": "uniform",
                                    "seed": null
                                }
                            },
                            "depthwise_regularizer": null,
                            "depthwise_constraint": null
                        },
                        "inbound_nodes": [
                            [
                                [
                                    "re_lu_13",
                                    0,
                                    0,
                                    {}
                                ]
                            ]
                        ]
                    },
                    {
                        "name": "batch_normalization_14",
                        "class_name": "BatchNormalization",
                        "config": {
                            "name": "batch_normalization_14",
                            "trainable": true,
                            "dtype": "float32",
                            "axis": -1,
                            "momentum": 0.99,
                            "epsilon": 0.001,
                            "center": true,
                            "scale": true,
                            "beta_initializer": {
                                "class_name": "Zeros",
                                "config": {}
                            },
                            "gamma_initializer": {
                                "class_name": "Ones",
                                "config": {}
                            },
                            "moving_mean_initializer": {
                                "class_name": "Zeros",
                                "config": {}
                            },
                            "moving_variance_initializer": {
                                "class_name": "Ones",
                                "config": {}
                            },
                            "beta_regularizer": null,
                            "gamma_regularizer": null,
                            "beta_constraint": null,
                            "gamma_constraint": null
                        },
                        "inbound_nodes": [
                            [
                                [
                                    "depthwise_conv2d_7",
                                    0,
                                    0,
                                    {}
                                ]
                            ]
                        ]
                    },
                    {
                        "name": "re_lu_14",
                        "class_name": "ReLU",
                        "config": {
                            "name": "re_lu_14",
                            "trainable": true,
                            "dtype": "float32",
                            "max_value": null,
                            "negative_slope": 0.0,
                            "threshold": 0.0
                        },
                        "inbound_nodes": [
                            [
                                [
                                    "batch_normalization_14",
                                    0,
                                    0,
                                    {}
                                ]
                            ]
                        ]
                    },
                    {
                        "name": "conv2d_8",
                        "class_name": "Conv2D",
                        "config": {
                            "name": "conv2d_8",
                            "trainable": true,
                            "dtype": "float32",
                            "filters": 512,
                            "kernel_size": [
                                1,
                                1
                            ],
                            "strides": [
                                1,
                                1
                            ],
                            "padding": "same",
                            "data_format": "channels_last",
                            "dilation_rate": [
                                1,
                                1
                            ],
                            "activation": "linear",
                            "use_bias": true,
                            "kernel_initializer": {
                                "class_name": "VarianceScaling",
                                "config": {
                                    "scale": 1.0,
                                    "mode": "fan_avg",
                                    "distribution": "uniform",
                                    "seed": null
                                }
                            },
                            "bias_initializer": {
                                "class_name": "Zeros",
                                "config": {}
                            },
                            "kernel_regularizer": null,
                            "bias_regularizer": null,
                            "activity_regularizer": null,
                            "kernel_constraint": null,
                            "bias_constraint": null
                        },
                        "inbound_nodes": [
                            [
                                [
                                    "re_lu_14",
                                    0,
                                    0,
                                    {}
                                ]
                            ]
                        ]
                    },
                    {
                        "name": "batch_normalization_15",
                        "class_name": "BatchNormalization",
                        "config": {
                            "name": "batch_normalization_15",
                            "trainable": true,
                            "dtype": "float32",
                            "axis": -1,
                            "momentum": 0.99,
                            "epsilon": 0.001,
                            "center": true,
                            "scale": true,
                            "beta_initializer": {
                                "class_name": "Zeros",
                                "config": {}
                            },
                            "gamma_initializer": {
                                "class_name": "Ones",
                                "config": {}
                            },
                            "moving_mean_initializer": {
                                "class_name": "Zeros",
                                "config": {}
                            },
                            "moving_variance_initializer": {
                                "class_name": "Ones",
                                "config": {}
                            },
                            "beta_regularizer": null,
                            "gamma_regularizer": null,
                            "beta_constraint": null,
                            "gamma_constraint": null
                        },
                        "inbound_nodes": [
                            [
                                [
                                    "conv2d_8",
                                    0,
                                    0,
                                    {}
                                ]
                            ]
                        ]
                    },
                    {
                        "name": "re_lu_15",
                        "class_name": "ReLU",
                        "config": {
                            "name": "re_lu_15",
                            "trainable": true,
                            "dtype": "float32",
                            "max_value": null,
                            "negative_slope": 0.0,
                            "threshold": 0.0
                        },
                        "inbound_nodes": [
                            [
                                [
                                    "batch_normalization_15",
                                    0,
                                    0,
                                    {}
                                ]
                            ]
                        ]
                    },
                    {
                        "name": "depthwise_conv2d_8",
                        "class_name": "DepthwiseConv2D",
                        "config": {
                            "name": "depthwise_conv2d_8",
                            "trainable": true,
                            "dtype": "float32",
                            "kernel_size": [
                                3,
                                3
                            ],
                            "strides": [
                                1,
                                1
                            ],
                            "padding": "same",
                            "data_format": "channels_last",
                            "dilation_rate": [
                                1,
                                1
                            ],
                            "activation": "linear",
                            "use_bias": true,
                            "bias_initializer": {
                                "class_name": "Zeros",
                                "config": {}
                            },
                            "bias_regularizer": null,
                            "activity_regularizer": null,
                            "bias_constraint": null,
                            "depth_multiplier": 1,
                            "depthwise_initializer": {
                                "class_name": "VarianceScaling",
                                "config": {
                                    "scale": 1.0,
                                    "mode": "fan_avg",
                                    "distribution": "uniform",
                                    "seed": null
                                }
                            },
                            "depthwise_regularizer": null,
                            "depthwise_constraint": null
                        },
                        "inbound_nodes": [
                            [
                                [
                                    "re_lu_15",
                                    0,
                                    0,
                                    {}
                                ]
                            ]
                        ]
                    },
                    {
                        "name": "batch_normalization_16",
                        "class_name": "BatchNormalization",
                        "config": {
                            "name": "batch_normalization_16",
                            "trainable": true,
                            "dtype": "float32",
                            "axis": -1,
                            "momentum": 0.99,
                            "epsilon": 0.001,
                            "center": true,
                            "scale": true,
                            "beta_initializer": {
                                "class_name": "Zeros",
                                "config": {}
                            },
                            "gamma_initializer": {
                                "class_name": "Ones",
                                "config": {}
                            },
                            "moving_mean_initializer": {
                                "class_name": "Zeros",
                                "config": {}
                            },
                            "moving_variance_initializer": {
                                "class_name": "Ones",
                                "config": {}
                            },
                            "beta_regularizer": null,
                            "gamma_regularizer": null,
                            "beta_constraint": null,
                            "gamma_constraint": null
                        },
                        "inbound_nodes": [
                            [
                                [
                                    "depthwise_conv2d_8",
                                    0,
                                    0,
                                    {}
                                ]
                            ]
                        ]
                    },
                    {
                        "name": "re_lu_16",
                        "class_name": "ReLU",
                        "config": {
                            "name": "re_lu_16",
                            "trainable": true,
                            "dtype": "float32",
                            "max_value": null,
                            "negative_slope": 0.0,
                            "threshold": 0.0
                        },
                        "inbound_nodes": [
                            [
                                [
                                    "batch_normalization_16",
                                    0,
                                    0,
                                    {}
                                ]
                            ]
                        ]
                    },
                    {
                        "name": "conv2d_9",
                        "class_name": "Conv2D",
                        "config": {
                            "name": "conv2d_9",
                            "trainable": true,
                            "dtype": "float32",
                            "filters": 512,
                            "kernel_size": [
                                1,
                                1
                            ],
                            "strides": [
                                1,
                                1
                            ],
                            "padding": "same",
                            "data_format": "channels_last",
                            "dilation_rate": [
                                1,
                                1
                            ],
                            "activation": "linear",
                            "use_bias": true,
                            "kernel_initializer": {
                                "class_name": "VarianceScaling",
                                "config": {
                                    "scale": 1.0,
                                    "mode": "fan_avg",
                                    "distribution": "uniform",
                                    "seed": null
                                }
                            },
                            "bias_initializer": {
                                "class_name": "Zeros",
                                "config": {}
                            },
                            "kernel_regularizer": null,
                            "bias_regularizer": null,
                            "activity_regularizer": null,
                            "kernel_constraint": null,
                            "bias_constraint": null
                        },
                        "inbound_nodes": [
                            [
                                [
                                    "re_lu_16",
                                    0,
                                    0,
                                    {}
                                ]
                            ]
                        ]
                    },
                    {
                        "name": "batch_normalization_17",
                        "class_name": "BatchNormalization",
                        "config": {
                            "name": "batch_normalization_17",
                            "trainable": true,
                            "dtype": "float32",
                            "axis": -1,
                            "momentum": 0.99,
                            "epsilon": 0.001,
                            "center": true,
                            "scale": true,
                            "beta_initializer": {
                                "class_name": "Zeros",
                                "config": {}
                            },
                            "gamma_initializer": {
                                "class_name": "Ones",
                                "config": {}
                            },
                            "moving_mean_initializer": {
                                "class_name": "Zeros",
                                "config": {}
                            },
                            "moving_variance_initializer": {
                                "class_name": "Ones",
                                "config": {}
                            },
                            "beta_regularizer": null,
                            "gamma_regularizer": null,
                            "beta_constraint": null,
                            "gamma_constraint": null
                        },
                        "inbound_nodes": [
                            [
                                [
                                    "conv2d_9",
                                    0,
                                    0,
                                    {}
                                ]
                            ]
                        ]
                    },
                    {
                        "name": "re_lu_17",
                        "class_name": "ReLU",
                        "config": {
                            "name": "re_lu_17",
                            "trainable": true,
                            "dtype": "float32",
                            "max_value": null,
                            "negative_slope": 0.0,
                            "threshold": 0.0
                        },
                        "inbound_nodes": [
                            [
                                [
                                    "batch_normalization_17",
                                    0,
                                    0,
                                    {}
                                ]
                            ]
                        ]
                    },
                    {
                        "name": "depthwise_conv2d_9",
                        "class_name": "DepthwiseConv2D",
                        "config": {
                            "name": "depthwise_conv2d_9",
                            "trainable": true,
                            "dtype": "float32",
                            "kernel_size": [
                                3,
                                3
                            ],
                            "strides": [
                                1,
                                1
                            ],
                            "padding": "same",
                            "data_format": "channels_last",
                            "dilation_rate": [
                                1,
                                1
                            ],
                            "activation": "linear",
                            "use_bias": true,
                            "bias_initializer": {
                                "class_name": "Zeros",
                                "config": {}
                            },
                            "bias_regularizer": null,
                            "activity_regularizer": null,
                            "bias_constraint": null,
                            "depth_multiplier": 1,
                            "depthwise_initializer": {
                                "class_name": "VarianceScaling",
                                "config": {
                                    "scale": 1.0,
                                    "mode": "fan_avg",
                                    "distribution": "uniform",
                                    "seed": null
                                }
                            },
                            "depthwise_regularizer": null,
                            "depthwise_constraint": null
                        },
                        "inbound_nodes": [
                            [
                                [
                                    "re_lu_17",
                                    0,
                                    0,
                                    {}
                                ]
                            ]
                        ]
                    },
                    {
                        "name": "batch_normalization_18",
                        "class_name": "BatchNormalization",
                        "config": {
                            "name": "batch_normalization_18",
                            "trainable": true,
                            "dtype": "float32",
                            "axis": -1,
                            "momentum": 0.99,
                            "epsilon": 0.001,
                            "center": true,
                            "scale": true,
                            "beta_initializer": {
                                "class_name": "Zeros",
                                "config": {}
                            },
                            "gamma_initializer": {
                                "class_name": "Ones",
                                "config": {}
                            },
                            "moving_mean_initializer": {
                                "class_name": "Zeros",
                                "config": {}
                            },
                            "moving_variance_initializer": {
                                "class_name": "Ones",
                                "config": {}
                            },
                            "beta_regularizer": null,
                            "gamma_regularizer": null,
                            "beta_constraint": null,
                            "gamma_constraint": null
                        },
                        "inbound_nodes": [
                            [
                                [
                                    "depthwise_conv2d_9",
                                    0,
                                    0,
                                    {}
                                ]
                            ]
                        ]
                    },
                    {
                        "name": "re_lu_18",
                        "class_name": "ReLU",
                        "config": {
                            "name": "re_lu_18",
                            "trainable": true,
                            "dtype": "float32",
                            "max_value": null,
                            "negative_slope": 0.0,
                            "threshold": 0.0
                        },
                        "inbound_nodes": [
                            [
                                [
                                    "batch_normalization_18",
                                    0,
                                    0,
                                    {}
                                ]
                            ]
                        ]
                    },
                    {
                        "name": "conv2d_10",
                        "class_name": "Conv2D",
                        "config": {
                            "name": "conv2d_10",
                            "trainable": true,
                            "dtype": "float32",
                            "filters": 512,
                            "kernel_size": [
                                1,
                                1
                            ],
                            "strides": [
                                1,
                                1
                            ],
                            "padding": "same",
                            "data_format": "channels_last",
                            "dilation_rate": [
                                1,
                                1
                            ],
                            "activation": "linear",
                            "use_bias": true,
                            "kernel_initializer": {
                                "class_name": "VarianceScaling",
                                "config": {
                                    "scale": 1.0,
                                    "mode": "fan_avg",
                                    "distribution": "uniform",
                                    "seed": null
                                }
                            },
                            "bias_initializer": {
                                "class_name": "Zeros",
                                "config": {}
                            },
                            "kernel_regularizer": null,
                            "bias_regularizer": null,
                            "activity_regularizer": null,
                            "kernel_constraint": null,
                            "bias_constraint": null
                        },
                        "inbound_nodes": [
                            [
                                [
                                    "re_lu_18",
                                    0,
                                    0,
                                    {}
                                ]
                            ]
                        ]
                    },
                    {
                        "name": "batch_normalization_19",
                        "class_name": "BatchNormalization",
                        "config": {
                            "name": "batch_normalization_19",
                            "trainable": true,
                            "dtype": "float32",
                            "axis": -1,
                            "momentum": 0.99,
                            "epsilon": 0.001,
                            "center": true,
                            "scale": true,
                            "beta_initializer": {
                                "class_name": "Zeros",
                                "config": {}
                            },
                            "gamma_initializer": {
                                "class_name": "Ones",
                                "config": {}
                            },
                            "moving_mean_initializer": {
                                "class_name": "Zeros",
                                "config": {}
                            },
                            "moving_variance_initializer": {
                                "class_name": "Ones",
                                "config": {}
                            },
                            "beta_regularizer": null,
                            "gamma_regularizer": null,
                            "beta_constraint": null,
                            "gamma_constraint": null
                        },
                        "inbound_nodes": [
                            [
                                [
                                    "conv2d_10",
                                    0,
                                    0,
                                    {}
                                ]
                            ]
                        ]
                    },
                    {
                        "name": "re_lu_19",
                        "class_name": "ReLU",
                        "config": {
                            "name": "re_lu_19",
                            "trainable": true,
                            "dtype": "float32",
                            "max_value": null,
                            "negative_slope": 0.0,
                            "threshold": 0.0
                        },
                        "inbound_nodes": [
                            [
                                [
                                    "batch_normalization_19",
                                    0,
                                    0,
                                    {}
                                ]
                            ]
                        ]
                    },
                    {
                        "name": "depthwise_conv2d_10",
                        "class_name": "DepthwiseConv2D",
                        "config": {
                            "name": "depthwise_conv2d_10",
                            "trainable": true,
                            "dtype": "float32",
                            "kernel_size": [
                                3,
                                3
                            ],
                            "strides": [
                                1,
                                1
                            ],
                            "padding": "same",
                            "data_format": "channels_last",
                            "dilation_rate": [
                                1,
                                1
                            ],
                            "activation": "linear",
                            "use_bias": true,
                            "bias_initializer": {
                                "class_name": "Zeros",
                                "config": {}
                            },
                            "bias_regularizer": null,
                            "activity_regularizer": null,
                            "bias_constraint": null,
                            "depth_multiplier": 1,
                            "depthwise_initializer": {
                                "class_name": "VarianceScaling",
                                "config": {
                                    "scale": 1.0,
                                    "mode": "fan_avg",
                                    "distribution": "uniform",
                                    "seed": null
                                }
                            },
                            "depthwise_regularizer": null,
                            "depthwise_constraint": null
                        },
                        "inbound_nodes": [
                            [
                                [
                                    "re_lu_19",
                                    0,
                                    0,
                                    {}
                                ]
                            ]
                        ]
                    },
                    {
                        "name": "batch_normalization_20",
                        "class_name": "BatchNormalization",
                        "config": {
                            "name": "batch_normalization_20",
                            "trainable": true,
                            "dtype": "float32",
                            "axis": -1,
                            "momentum": 0.99,
                            "epsilon": 0.001,
                            "center": true,
                            "scale": true,
                            "beta_initializer": {
                                "class_name": "Zeros",
                                "config": {}
                            },
                            "gamma_initializer": {
                                "class_name": "Ones",
                                "config": {}
                            },
                            "moving_mean_initializer": {
                                "class_name": "Zeros",
                                "config": {}
                            },
                            "moving_variance_initializer": {
                                "class_name": "Ones",
                                "config": {}
                            },
                            "beta_regularizer": null,
                            "gamma_regularizer": null,
                            "beta_constraint": null,
                            "gamma_constraint": null
                        },
                        "inbound_nodes": [
                            [
                                [
                                    "depthwise_conv2d_10",
                                    0,
                                    0,
                                    {}
                                ]
                            ]
                        ]
                    },
                    {
                        "name": "re_lu_20",
                        "class_name": "ReLU",
                        "config": {
                            "name": "re_lu_20",
                            "trainable": true,
                            "dtype": "float32",
                            "max_value": null,
                            "negative_slope": 0.0,
                            "threshold": 0.0
                        },
                        "inbound_nodes": [
                            [
                                [
                                    "batch_normalization_20",
                                    0,
                                    0,
                                    {}
                                ]
                            ]
                        ]
                    },
                    {
                        "name": "conv2d_11",
                        "class_name": "Conv2D",
                        "config": {
                            "name": "conv2d_11",
                            "trainable": true,
                            "dtype": "float32",
                            "filters": 512,
                            "kernel_size": [
                                1,
                                1
                            ],
                            "strides": [
                                1,
                                1
                            ],
                            "padding": "same",
                            "data_format": "channels_last",
                            "dilation_rate": [
                                1,
                                1
                            ],
                            "activation": "linear",
                            "use_bias": true,
                            "kernel_initializer": {
                                "class_name": "VarianceScaling",
                                "config": {
                                    "scale": 1.0,
                                    "mode": "fan_avg",
                                    "distribution": "uniform",
                                    "seed": null
                                }
                            },
                            "bias_initializer": {
                                "class_name": "Zeros",
                                "config": {}
                            },
                            "kernel_regularizer": null,
                            "bias_regularizer": null,
                            "activity_regularizer": null,
                            "kernel_constraint": null,
                            "bias_constraint": null
                        },
                        "inbound_nodes": [
                            [
                                [
                                    "re_lu_20",
                                    0,
                                    0,
                                    {}
                                ]
                            ]
                        ]
                    },
                    {
                        "name": "batch_normalization_21",
                        "class_name": "BatchNormalization",
                        "config": {
                            "name": "batch_normalization_21",
                            "trainable": true,
                            "dtype": "float32",
                            "axis": -1,
                            "momentum": 0.99,
                            "epsilon": 0.001,
                            "center": true,
                            "scale": true,
                            "beta_initializer": {
                                "class_name": "Zeros",
                                "config": {}
                            },
                            "gamma_initializer": {
                                "class_name": "Ones",
                                "config": {}
                            },
                            "moving_mean_initializer": {
                                "class_name": "Zeros",
                                "config": {}
                            },
                            "moving_variance_initializer": {
                                "class_name": "Ones",
                                "config": {}
                            },
                            "beta_regularizer": null,
                            "gamma_regularizer": null,
                            "beta_constraint": null,
                            "gamma_constraint": null
                        },
                        "inbound_nodes": [
                            [
                                [
                                    "conv2d_11",
                                    0,
                                    0,
                                    {}
                                ]
                            ]
                        ]
                    },
                    {
                        "name": "re_lu_21",
                        "class_name": "ReLU",
                        "config": {
                            "name": "re_lu_21",
                            "trainable": true,
                            "dtype": "float32",
                            "max_value": null,
                            "negative_slope": 0.0,
                            "threshold": 0.0
                        },
                        "inbound_nodes": [
                            [
                                [
                                    "batch_normalization_21",
                                    0,
                                    0,
                                    {}
                                ]
                            ]
                        ]
                    },
                    {
                        "name": "depthwise_conv2d_11",
                        "class_name": "DepthwiseConv2D",
                        "config": {
                            "name": "depthwise_conv2d_11",
                            "trainable": true,
                            "dtype": "float32",
                            "kernel_size": [
                                3,
                                3
                            ],
                            "strides": [
                                1,
                                1
                            ],
                            "padding": "same",
                            "data_format": "channels_last",
                            "dilation_rate": [
                                1,
                                1
                            ],
                            "activation": "linear",
                            "use_bias": true,
                            "bias_initializer": {
                                "class_name": "Zeros",
                                "config": {}
                            },
                            "bias_regularizer": null,
                            "activity_regularizer": null,
                            "bias_constraint": null,
                            "depth_multiplier": 1,
                            "depthwise_initializer": {
                                "class_name": "VarianceScaling",
                                "config": {
                                    "scale": 1.0,
                                    "mode": "fan_avg",
                                    "distribution": "uniform",
                                    "seed": null
                                }
                            },
                            "depthwise_regularizer": null,
                            "depthwise_constraint": null
                        },
                        "inbound_nodes": [
                            [
                                [
                                    "re_lu_21",
                                    0,
                                    0,
                                    {}
                                ]
                            ]
                        ]
                    },
                    {
                        "name": "batch_normalization_22",
                        "class_name": "BatchNormalization",
                        "config": {
                            "name": "batch_normalization_22",
                            "trainable": true,
                            "dtype": "float32",
                            "axis": -1,
                            "momentum": 0.99,
                            "epsilon": 0.001,
                            "center": true,
                            "scale": true,
                            "beta_initializer": {
                                "class_name": "Zeros",
                                "config": {}
                            },
                            "gamma_initializer": {
                                "class_name": "Ones",
                                "config": {}
                            },
                            "moving_mean_initializer": {
                                "class_name": "Zeros",
                                "config": {}
                            },
                            "moving_variance_initializer": {
                                "class_name": "Ones",
                                "config": {}
                            },
                            "beta_regularizer": null,
                            "gamma_regularizer": null,
                            "beta_constraint": null,
                            "gamma_constraint": null
                        },
                        "inbound_nodes": [
                            [
                                [
                                    "depthwise_conv2d_11",
                                    0,
                                    0,
                                    {}
                                ]
                            ]
                        ]
                    },
                    {
                        "name": "re_lu_22",
                        "class_name": "ReLU",
                        "config": {
                            "name": "re_lu_22",
                            "trainable": true,
                            "dtype": "float32",
                            "max_value": null,
                            "negative_slope": 0.0,
                            "threshold": 0.0
                        },
                        "inbound_nodes": [
                            [
                                [
                                    "batch_normalization_22",
                                    0,
                                    0,
                                    {}
                                ]
                            ]
                        ]
                    },
                    {
                        "name": "conv2d_12",
                        "class_name": "Conv2D",
                        "config": {
                            "name": "conv2d_12",
                            "trainable": true,
                            "dtype": "float32",
                            "filters": 512,
                            "kernel_size": [
                                1,
                                1
                            ],
                            "strides": [
                                1,
                                1
                            ],
                            "padding": "same",
                            "data_format": "channels_last",
                            "dilation_rate": [
                                1,
                                1
                            ],
                            "activation": "linear",
                            "use_bias": true,
                            "kernel_initializer": {
                                "class_name": "VarianceScaling",
                                "config": {
                                    "scale": 1.0,
                                    "mode": "fan_avg",
                                    "distribution": "uniform",
                                    "seed": null
                                }
                            },
                            "bias_initializer": {
                                "class_name": "Zeros",
                                "config": {}
                            },
                            "kernel_regularizer": null,
                            "bias_regularizer": null,
                            "activity_regularizer": null,
                            "kernel_constraint": null,
                            "bias_constraint": null
                        },
                        "inbound_nodes": [
                            [
                                [
                                    "re_lu_22",
                                    0,
                                    0,
                                    {}
                                ]
                            ]
                        ]
                    },
                    {
                        "name": "batch_normalization_23",
                        "class_name": "BatchNormalization",
                        "config": {
                            "name": "batch_normalization_23",
                            "trainable": true,
                            "dtype": "float32",
                            "axis": -1,
                            "momentum": 0.99,
                            "epsilon": 0.001,
                            "center": true,
                            "scale": true,
                            "beta_initializer": {
                                "class_name": "Zeros",
                                "config": {}
                            },
                            "gamma_initializer": {
                                "class_name": "Ones",
                                "config": {}
                            },
                            "moving_mean_initializer": {
                                "class_name": "Zeros",
                                "config": {}
                            },
                            "moving_variance_initializer": {
                                "class_name": "Ones",
                                "config": {}
                            },
                            "beta_regularizer": null,
                            "gamma_regularizer": null,
                            "beta_constraint": null,
                            "gamma_constraint": null
                        },
                        "inbound_nodes": [
                            [
                                [
                                    "conv2d_12",
                                    0,
                                    0,
                                    {}
                                ]
                            ]
                        ]
                    },
                    {
                        "name": "re_lu_23",
                        "class_name": "ReLU",
                        "config": {
                            "name": "re_lu_23",
                            "trainable": true,
                            "dtype": "float32",
                            "max_value": null,
                            "negative_slope": 0.0,
                            "threshold": 0.0
                        },
                        "inbound_nodes": [
                            [
                                [
                                    "batch_normalization_23",
                                    0,
                                    0,
                                    {}
                                ]
                            ]
                        ]
                    },
                    {
                        "name": "zero_padding2d_5",
                        "class_name": "ZeroPadding2D",
                        "config": {
                            "name": "zero_padding2d_5",
                            "trainable": true,
                            "dtype": "float32",
                            "padding": [
                                [
                                    0,
                                    1
                                ],
                                [
                                    0,
                                    1
                                ]
                            ],
                            "data_format": "channels_last"
                        },
                        "inbound_nodes": [
                            [
                                [
                                    "re_lu_23",
                                    0,
                                    0,
                                    {}
                                ]
                            ]
                        ]
                    },
                    {
                        "name": "depthwise_conv2d_12",
                        "class_name": "DepthwiseConv2D",
                        "config": {
                            "name": "depthwise_conv2d_12",
                            "trainable": true,
                            "dtype": "float32",
                            "kernel_size": [
                                3,
                                3
                            ],
                            "strides": [
                                2,
                                2
                            ],
                            "padding": "valid",
                            "data_format": "channels_last",
                            "dilation_rate": [
                                1,
                                1
                            ],
                            "activation": "linear",
                            "use_bias": true,
                            "bias_initializer": {
                                "class_name": "Zeros",
                                "config": {}
                            },
                            "bias_regularizer": null,
                            "activity_regularizer": null,
                            "bias_constraint": null,
                            "depth_multiplier": 1,
                            "depthwise_initializer": {
                                "class_name": "VarianceScaling",
                                "config": {
                                    "scale": 1.0,
                                    "mode": "fan_avg",
                                    "distribution": "uniform",
                                    "seed": null
                                }
                            },
                            "depthwise_regularizer": null,
                            "depthwise_constraint": null
                        },
                        "inbound_nodes": [
                            [
                                [
                                    "zero_padding2d_5",
                                    0,
                                    0,
                                    {}
                                ]
                            ]
                        ]
                    },
                    {
                        "name": "batch_normalization_24",
                        "class_name": "BatchNormalization",
                        "config": {
                            "name": "batch_normalization_24",
                            "trainable": true,
                            "dtype": "float32",
                            "axis": -1,
                            "momentum": 0.99,
                            "epsilon": 0.001,
                            "center": true,
                            "scale": true,
                            "beta_initializer": {
                                "class_name": "Zeros",
                                "config": {}
                            },
                            "gamma_initializer": {
                                "class_name": "Ones",
                                "config": {}
                            },
                            "moving_mean_initializer": {
                                "class_name": "Zeros",
                                "config": {}
                            },
                            "moving_variance_initializer": {
                                "class_name": "Ones",
                                "config": {}
                            },
                            "beta_regularizer": null,
                            "gamma_regularizer": null,
                            "beta_constraint": null,
                            "gamma_constraint": null
                        },
                        "inbound_nodes": [
                            [
                                [
                                    "depthwise_conv2d_12",
                                    0,
                                    0,
                                    {}
                                ]
                            ]
                        ]
                    },
                    {
                        "name": "re_lu_24",
                        "class_name": "ReLU",
                        "config": {
                            "name": "re_lu_24",
                            "trainable": true,
                            "dtype": "float32",
                            "max_value": null,
                            "negative_slope": 0.0,
                            "threshold": 0.0
                        },
                        "inbound_nodes": [
                            [
                                [
                                    "batch_normalization_24",
                                    0,
                                    0,
                                    {}
                                ]
                            ]
                        ]
                    },
                    {
                        "name": "conv2d_13",
                        "class_name": "Conv2D",
                        "config": {
                            "name": "conv2d_13",
                            "trainable": true,
                            "dtype": "float32",
                            "filters": 1024,
                            "kernel_size": [
                                1,
                                1
                            ],
                            "strides": [
                                1,
                                1
                            ],
                            "padding": "same",
                            "data_format": "channels_last",
                            "dilation_rate": [
                                1,
                                1
                            ],
                            "activation": "linear",
                            "use_bias": true,
                            "kernel_initializer": {
                                "class_name": "VarianceScaling",
                                "config": {
                                    "scale": 1.0,
                                    "mode": "fan_avg",
                                    "distribution": "uniform",
                                    "seed": null
                                }
                            },
                            "bias_initializer": {
                                "class_name": "Zeros",
                                "config": {}
                            },
                            "kernel_regularizer": null,
                            "bias_regularizer": null,
                            "activity_regularizer": null,
                            "kernel_constraint": null,
                            "bias_constraint": null
                        },
                        "inbound_nodes": [
                            [
                                [
                                    "re_lu_24",
                                    0,
                                    0,
                                    {}
                                ]
                            ]
                        ]
                    },
                    {
                        "name": "batch_normalization_25",
                        "class_name": "BatchNormalization",
                        "config": {
                            "name": "batch_normalization_25",
                            "trainable": true,
                            "dtype": "float32",
                            "axis": -1,
                            "momentum": 0.99,
                            "epsilon": 0.001,
                            "center": true,
                            "scale": true,
                            "beta_initializer": {
                                "class_name": "Zeros",
                                "config": {}
                            },
                            "gamma_initializer": {
                                "class_name": "Ones",
                                "config": {}
                            },
                            "moving_mean_initializer": {
                                "class_name": "Zeros",
                                "config": {}
                            },
                            "moving_variance_initializer": {
                                "class_name": "Ones",
                                "config": {}
                            },
                            "beta_regularizer": null,
                            "gamma_regularizer": null,
                            "beta_constraint": null,
                            "gamma_constraint": null
                        },
                        "inbound_nodes": [
                            [
                                [
                                    "conv2d_13",
                                    0,
                                    0,
                                    {}
                                ]
                            ]
                        ]
                    },
                    {
                        "name": "re_lu_25",
                        "class_name": "ReLU",
                        "config": {
                            "name": "re_lu_25",
                            "trainable": true,
                            "dtype": "float32",
                            "max_value": null,
                            "negative_slope": 0.0,
                            "threshold": 0.0
                        },
                        "inbound_nodes": [
                            [
                                [
                                    "batch_normalization_25",
                                    0,
                                    0,
                                    {}
                                ]
                            ]
                        ]
                    },
                    {
                        "name": "depthwise_conv2d_13",
                        "class_name": "DepthwiseConv2D",
                        "config": {
                            "name": "depthwise_conv2d_13",
                            "trainable": true,
                            "dtype": "float32",
                            "kernel_size": [
                                3,
                                3
                            ],
                            "strides": [
                                1,
                                1
                            ],
                            "padding": "same",
                            "data_format": "channels_last",
                            "dilation_rate": [
                                1,
                                1
                            ],
                            "activation": "linear",
                            "use_bias": true,
                            "bias_initializer": {
                                "class_name": "Zeros",
                                "config": {}
                            },
                            "bias_regularizer": null,
                            "activity_regularizer": null,
                            "bias_constraint": null,
                            "depth_multiplier": 1,
                            "depthwise_initializer": {
                                "class_name": "VarianceScaling",
                                "config": {
                                    "scale": 1.0,
                                    "mode": "fan_avg",
                                    "distribution": "uniform",
                                    "seed": null
                                }
                            },
                            "depthwise_regularizer": null,
                            "depthwise_constraint": null
                        },
                        "inbound_nodes": [
                            [
                                [
                                    "re_lu_25",
                                    0,
                                    0,
                                    {}
                                ]
                            ]
                        ]
                    },
                    {
                        "name": "batch_normalization_26",
                        "class_name": "BatchNormalization",
                        "config": {
                            "name": "batch_normalization_26",
                            "trainable": true,
                            "dtype": "float32",
                            "axis": -1,
                            "momentum": 0.99,
                            "epsilon": 0.001,
                            "center": true,
                            "scale": true,
                            "beta_initializer": {
                                "class_name": "Zeros",
                                "config": {}
                            },
                            "gamma_initializer": {
                                "class_name": "Ones",
                                "config": {}
                            },
                            "moving_mean_initializer": {
                                "class_name": "Zeros",
                                "config": {}
                            },
                            "moving_variance_initializer": {
                                "class_name": "Ones",
                                "config": {}
                            },
                            "beta_regularizer": null,
                            "gamma_regularizer": null,
                            "beta_constraint": null,
                            "gamma_constraint": null
                        },
                        "inbound_nodes": [
                            [
                                [
                                    "depthwise_conv2d_13",
                                    0,
                                    0,
                                    {}
                                ]
                            ]
                        ]
                    },
                    {
                        "name": "re_lu_26",
                        "class_name": "ReLU",
                        "config": {
                            "name": "re_lu_26",
                            "trainable": true,
                            "dtype": "float32",
                            "max_value": null,
                            "negative_slope": 0.0,
                            "threshold": 0.0
                        },
                        "inbound_nodes": [
                            [
                                [
                                    "batch_normalization_26",
                                    0,
                                    0,
                                    {}
                                ]
                            ]
                        ]
                    },
                    {
                        "name": "conv2d_14",
                        "class_name": "Conv2D",
                        "config": {
                            "name": "conv2d_14",
                            "trainable": true,
                            "dtype": "float32",
                            "filters": 1024,
                            "kernel_size": [
                                1,
                                1
                            ],
                            "strides": [
                                1,
                                1
                            ],
                            "padding": "same",
                            "data_format": "channels_last",
                            "dilation_rate": [
                                1,
                                1
                            ],
                            "activation": "linear",
                            "use_bias": true,
                            "kernel_initializer": {
                                "class_name": "VarianceScaling",
                                "config": {
                                    "scale": 1.0,
                                    "mode": "fan_avg",
                                    "distribution": "uniform",
                                    "seed": null
                                }
                            },
                            "bias_initializer": {
                                "class_name": "Zeros",
                                "config": {}
                            },
                            "kernel_regularizer": null,
                            "bias_regularizer": null,
                            "activity_regularizer": null,
                            "kernel_constraint": null,
                            "bias_constraint": null
                        },
                        "inbound_nodes": [
                            [
                                [
                                    "re_lu_26",
                                    0,
                                    0,
                                    {}
                                ]
                            ]
                        ]
                    },
                    {
                        "name": "batch_normalization_27",
                        "class_name": "BatchNormalization",
                        "config": {
                            "name": "batch_normalization_27",
                            "trainable": true,
                            "dtype": "float32",
                            "axis": -1,
                            "momentum": 0.99,
                            "epsilon": 0.001,
                            "center": true,
                            "scale": true,
                            "beta_initializer": {
                                "class_name": "Zeros",
                                "config": {}
                            },
                            "gamma_initializer": {
                                "class_name": "Ones",
                                "config": {}
                            },
                            "moving_mean_initializer": {
                                "class_name": "Zeros",
                                "config": {}
                            },
                            "moving_variance_initializer": {
                                "class_name": "Ones",
                                "config": {}
                            },
                            "beta_regularizer": null,
                            "gamma_regularizer": null,
                            "beta_constraint": null,
                            "gamma_constraint": null
                        },
                        "inbound_nodes": [
                            [
                                [
                                    "conv2d_14",
                                    0,
                                    0,
                                    {}
                                ]
                            ]
                        ]
                    },
                    {
                        "name": "re_lu_27",
                        "class_name": "ReLU",
                        "config": {
                            "name": "re_lu_27",
                            "trainable": true,
                            "dtype": "float32",
                            "max_value": null,
                            "negative_slope": 0.0,
                            "threshold": 0.0
                        },
                        "inbound_nodes": [
                            [
                                [
                                    "batch_normalization_27",
                                    0,
                                    0,
                                    {}
                                ]
                            ]
                        ]
                    },
                    {
                        "name": "global_average_pooling2d_1",
                        "class_name": "GlobalAveragePooling2D",
                        "config": {
                            "name": "global_average_pooling2d_1",
                            "trainable": true,
                            "dtype": "float32",
                            "data_format": "channels_last"
                        },
                        "inbound_nodes": [
                            [
                                [
                                    "re_lu_27",
                                    0,
                                    0,
                                    {}
                                ]
                            ]
                        ]
                    },
                    {
                        "name": "reshape_1",
                        "class_name": "Reshape",
                        "config": {
                            "name": "reshape_1",
                            "trainable": true,
                            "dtype": "float32",
                            "target_shape": [
                                1,
                                1,
                                1024
                            ]
                        },
                        "inbound_nodes": [
                            [
                                [
                                    "global_average_pooling2d_1",
                                    0,
                                    0,
                                    {}
                                ]
                            ]
                        ]
                    },
                    {
                        "name": "dropout_1",
                        "class_name": "Dropout",
                        "config": {
                            "name": "dropout_1",
                            "trainable": true,
                            "dtype": "float32",
                            "rate": 0.5,
                            "noise_shape": null,
                            "seed": null
                        },
                        "inbound_nodes": [
                            [
                                [
                                    "reshape_1",
                                    0,
                                    0,
                                    {}
                                ]
                            ]
                        ]
                    },
                    {
                        "name": "conv2d_15",
                        "class_name": "Conv2D",
                        "config": {
                            "name": "conv2d_15",
                            "trainable": true,
                            "dtype": "float32",
                            "filters": 4,
                            "kernel_size": [
                                1,
                                1
                            ],
                            "strides": [
                                1,
                                1
                            ],
                            "padding": "same",
                            "data_format": "channels_last",
                            "dilation_rate": [
                                1,
                                1
                            ],
                            "activation": "linear",
                            "use_bias": true,
                            "kernel_initializer": {
                                "class_name": "VarianceScaling",
                                "config": {
                                    "scale": 1.0,
                                    "mode": "fan_avg",
                                    "distribution": "uniform",
                                    "seed": null
                                }
                            },
                            "bias_initializer": {
                                "class_name": "Zeros",
                                "config": {}
                            },
                            "kernel_regularizer": null,
                            "bias_regularizer": null,
                            "activity_regularizer": null,
                            "kernel_constraint": null,
                            "bias_constraint": null
                        },
                        "inbound_nodes": [
                            [
                                [
                                    "dropout_1",
                                    0,
                                    0,
                                    {}
                                ]
                            ]
                        ]
                    },
                    {
                        "name": "activation_1",
                        "class_name": "Activation",
                        "config": {
                            "name": "activation_1",
                            "trainable": true,
                            "dtype": "float32",
                            "activation": "softmax"
                        },
                        "inbound_nodes": [
                            [
                                [
                                    "conv2d_15",
                                    0,
                                    0,
                                    {}
                                ]
                            ]
                        ]
                    },
                    {
                        "name": "reshape_2",
                        "class_name": "Reshape",
                        "config": {
                            "name": "reshape_2",
                            "trainable": true,
                            "dtype": "float32",
                            "target_shape": [
                                4
                            ]
                        },
                        "inbound_nodes": [
                            [
                                [
                                    "activation_1",
                                    0,
                                    0,
                                    {}
                                ]
                            ]
                        ]
                    }
                ],
                "input_layers": [
                    [
                        "input_1",
                        0,
                        0
                    ]
                ],
                "output_layers": [
                    [
                        "reshape_2",
                        0,
                        0
                    ]
                ]
            }
        },
        "training_config": {
            "optimizer_config": {
                "class_name": "Adam",
                "config": {
                    "learning_rate": 0.0010000000474974513,
                    "beta_1": 0.8999999761581421,
                    "beta_2": 0.9990000128746033,
                    "decay": 0.0,
                    "epsilon": 1e-07,
                    "amsgrad": false
                }
            },
            "loss": "binary_crossentropy",
            "metrics": [
                "acc"
            ],
            "weighted_metrics": null,
            "sample_weight_mode": null,
            "loss_weights": null
        }
    },
    "weightsManifest": [
        {
            "paths": [
                "group1-shard1of4.bin",
                "group1-shard2of4.bin",
                "group1-shard3of4.bin",
                "group1-shard4of4.bin"
            ],
            "weights": [
                {
                    "name": "batch_normalization_1/gamma",
                    "shape": [
                        32
                    ],
                    "dtype": "float32"
                },
                {
                    "name": "batch_normalization_1/beta",
                    "shape": [
                        32
                    ],
                    "dtype": "float32"
                },
                {
                    "name": "batch_normalization_1/moving_mean",
                    "shape": [
                        32
                    ],
                    "dtype": "float32"
                },
                {
                    "name": "batch_normalization_1/moving_variance",
                    "shape": [
                        32
                    ],
                    "dtype": "float32"
                },
                {
                    "name": "batch_normalization_10/gamma",
                    "shape": [
                        256
                    ],
                    "dtype": "float32"
                },
                {
                    "name": "batch_normalization_10/beta",
                    "shape": [
                        256
                    ],
                    "dtype": "float32"
                },
                {
                    "name": "batch_normalization_10/moving_mean",
                    "shape": [
                        256
                    ],
                    "dtype": "float32"
                },
                {
                    "name": "batch_normalization_10/moving_variance",
                    "shape": [
                        256
                    ],
                    "dtype": "float32"
                },
                {
                    "name": "batch_normalization_11/gamma",
                    "shape": [
                        256
                    ],
                    "dtype": "float32"
                },
                {
                    "name": "batch_normalization_11/beta",
                    "shape": [
                        256
                    ],
                    "dtype": "float32"
                },
                {
                    "name": "batch_normalization_11/moving_mean",
                    "shape": [
                        256
                    ],
                    "dtype": "float32"
                },
                {
                    "name": "batch_normalization_11/moving_variance",
                    "shape": [
                        256
                    ],
                    "dtype": "float32"
                },
                {
                    "name": "batch_normalization_12/gamma",
                    "shape": [
                        256
                    ],
                    "dtype": "float32"
                },
                {
                    "name": "batch_normalization_12/beta",
                    "shape": [
                        256
                    ],
                    "dtype": "float32"
                },
                {
                    "name": "batch_normalization_12/moving_mean",
                    "shape": [
                        256
                    ],
                    "dtype": "float32"
                },
                {
                    "name": "batch_normalization_12/moving_variance",
                    "shape": [
                        256
                    ],
                    "dtype": "float32"
                },
                {
                    "name": "batch_normalization_13/gamma",
                    "shape": [
                        512
                    ],
                    "dtype": "float32"
                },
                {
                    "name": "batch_normalization_13/beta",
                    "shape": [
                        512
                    ],
                    "dtype": "float32"
                },
                {
                    "name": "batch_normalization_13/moving_mean",
                    "shape": [
                        512
                    ],
                    "dtype": "float32"
                },
                {
                    "name": "batch_normalization_13/moving_variance",
                    "shape": [
                        512
                    ],
                    "dtype": "float32"
                },
                {
                    "name": "batch_normalization_14/gamma",
                    "shape": [
                        512
                    ],
                    "dtype": "float32"
                },
                {
                    "name": "batch_normalization_14/beta",
                    "shape": [
                        512
                    ],
                    "dtype": "float32"
                },
                {
                    "name": "batch_normalization_14/moving_mean",
                    "shape": [
                        512
                    ],
                    "dtype": "float32"
                },
                {
                    "name": "batch_normalization_14/moving_variance",
                    "shape": [
                        512
                    ],
                    "dtype": "float32"
                },
                {
                    "name": "batch_normalization_15/gamma",
                    "shape": [
                        512
                    ],
                    "dtype": "float32"
                },
                {
                    "name": "batch_normalization_15/beta",
                    "shape": [
                        512
                    ],
                    "dtype": "float32"
                },
                {
                    "name": "batch_normalization_15/moving_mean",
                    "shape": [
                        512
                    ],
                    "dtype": "float32"
                },
                {
                    "name": "batch_normalization_15/moving_variance",
                    "shape": [
                        512
                    ],
                    "dtype": "float32"
                },
                {
                    "name": "batch_normalization_16/gamma",
                    "shape": [
                        512
                    ],
                    "dtype": "float32"
                },
                {
                    "name": "batch_normalization_16/beta",
                    "shape": [
                        512
                    ],
                    "dtype": "float32"
                },
                {
                    "name": "batch_normalization_16/moving_mean",
                    "shape": [
                        512
                    ],
                    "dtype": "float32"
                },
                {
                    "name": "batch_normalization_16/moving_variance",
                    "shape": [
                        512
                    ],
                    "dtype": "float32"
                },
                {
                    "name": "batch_normalization_17/gamma",
                    "shape": [
                        512
                    ],
                    "dtype": "float32"
                },
                {
                    "name": "batch_normalization_17/beta",
                    "shape": [
                        512
                    ],
                    "dtype": "float32"
                },
                {
                    "name": "batch_normalization_17/moving_mean",
                    "shape": [
                        512
                    ],
                    "dtype": "float32"
                },
                {
                    "name": "batch_normalization_17/moving_variance",
                    "shape": [
                        512
                    ],
                    "dtype": "float32"
                },
                {
                    "name": "batch_normalization_18/gamma",
                    "shape": [
                        512
                    ],
                    "dtype": "float32"
                },
                {
                    "name": "batch_normalization_18/beta",
                    "shape": [
                        512
                    ],
                    "dtype": "float32"
                },
                {
                    "name": "batch_normalization_18/moving_mean",
                    "shape": [
                        512
                    ],
                    "dtype": "float32"
                },
                {
                    "name": "batch_normalization_18/moving_variance",
                    "shape": [
                        512
                    ],
                    "dtype": "float32"
                },
                {
                    "name": "batch_normalization_19/gamma",
                    "shape": [
                        512
                    ],
                    "dtype": "float32"
                },
                {
                    "name": "batch_normalization_19/beta",
                    "shape": [
                        512
                    ],
                    "dtype": "float32"
                },
                {
                    "name": "batch_normalization_19/moving_mean",
                    "shape": [
                        512
                    ],
                    "dtype": "float32"
                },
                {
                    "name": "batch_normalization_19/moving_variance",
                    "shape": [
                        512
                    ],
                    "dtype": "float32"
                },
                {
                    "name": "batch_normalization_2/gamma",
                    "shape": [
                        32
                    ],
                    "dtype": "float32"
                },
                {
                    "name": "batch_normalization_2/beta",
                    "shape": [
                        32
                    ],
                    "dtype": "float32"
                },
                {
                    "name": "batch_normalization_2/moving_mean",
                    "shape": [
                        32
                    ],
                    "dtype": "float32"
                },
                {
                    "name": "batch_normalization_2/moving_variance",
                    "shape": [
                        32
                    ],
                    "dtype": "float32"
                },
                {
                    "name": "batch_normalization_20/gamma",
                    "shape": [
                        512
                    ],
                    "dtype": "float32"
                },
                {
                    "name": "batch_normalization_20/beta",
                    "shape": [
                        512
                    ],
                    "dtype": "float32"
                },
                {
                    "name": "batch_normalization_20/moving_mean",
                    "shape": [
                        512
                    ],
                    "dtype": "float32"
                },
                {
                    "name": "batch_normalization_20/moving_variance",
                    "shape": [
                        512
                    ],
                    "dtype": "float32"
                },
                {
                    "name": "batch_normalization_21/gamma",
                    "shape": [
                        512
                    ],
                    "dtype": "float32"
                },
                {
                    "name": "batch_normalization_21/beta",
                    "shape": [
                        512
                    ],
                    "dtype": "float32"
                },
                {
                    "name": "batch_normalization_21/moving_mean",
                    "shape": [
                        512
                    ],
                    "dtype": "float32"
                },
                {
                    "name": "batch_normalization_21/moving_variance",
                    "shape": [
                        512
                    ],
                    "dtype": "float32"
                },
                {
                    "name": "batch_normalization_22/gamma",
                    "shape": [
                        512
                    ],
                    "dtype": "float32"
                },
                {
                    "name": "batch_normalization_22/beta",
                    "shape": [
                        512
                    ],
                    "dtype": "float32"
                },
                {
                    "name": "batch_normalization_22/moving_mean",
                    "shape": [
                        512
                    ],
                    "dtype": "float32"
                },
                {
                    "name": "batch_normalization_22/moving_variance",
                    "shape": [
                        512
                    ],
                    "dtype": "float32"
                },
                {
                    "name": "batch_normalization_23/gamma",
                    "shape": [
                        512
                    ],
                    "dtype": "float32"
                },
                {
                    "name": "batch_normalization_23/beta",
                    "shape": [
                        512
                    ],
                    "dtype": "float32"
                },
                {
                    "name": "batch_normalization_23/moving_mean",
                    "shape": [
                        512
                    ],
                    "dtype": "float32"
                },
                {
                    "name": "batch_normalization_23/moving_variance",
                    "shape": [
                        512
                    ],
                    "dtype": "float32"
                },
                {
                    "name": "batch_normalization_24/gamma",
                    "shape": [
                        512
                    ],
                    "dtype": "float32"
                },
                {
                    "name": "batch_normalization_24/beta",
                    "shape": [
                        512
                    ],
                    "dtype": "float32"
                },
                {
                    "name": "batch_normalization_24/moving_mean",
                    "shape": [
                        512
                    ],
                    "dtype": "float32"
                },
                {
                    "name": "batch_normalization_24/moving_variance",
                    "shape": [
                        512
                    ],
                    "dtype": "float32"
                },
                {
                    "name": "batch_normalization_25/gamma",
                    "shape": [
                        1024
                    ],
                    "dtype": "float32"
                },
                {
                    "name": "batch_normalization_25/beta",
                    "shape": [
                        1024
                    ],
                    "dtype": "float32"
                },
                {
                    "name": "batch_normalization_25/moving_mean",
                    "shape": [
                        1024
                    ],
                    "dtype": "float32"
                },
                {
                    "name": "batch_normalization_25/moving_variance",
                    "shape": [
                        1024
                    ],
                    "dtype": "float32"
                },
                {
                    "name": "batch_normalization_26/gamma",
                    "shape": [
                        1024
                    ],
                    "dtype": "float32"
                },
                {
                    "name": "batch_normalization_26/beta",
                    "shape": [
                        1024
                    ],
                    "dtype": "float32"
                },
                {
                    "name": "batch_normalization_26/moving_mean",
                    "shape": [
                        1024
                    ],
                    "dtype": "float32"
                },
                {
                    "name": "batch_normalization_26/moving_variance",
                    "shape": [
                        1024
                    ],
                    "dtype": "float32"
                },
                {
                    "name": "batch_normalization_27/gamma",
                    "shape": [
                        1024
                    ],
                    "dtype": "float32"
                },
                {
                    "name": "batch_normalization_27/beta",
                    "shape": [
                        1024
                    ],
                    "dtype": "float32"
                },
                {
                    "name": "batch_normalization_27/moving_mean",
                    "shape": [
                        1024
                    ],
                    "dtype": "float32"
                },
                {
                    "name": "batch_normalization_27/moving_variance",
                    "shape": [
                        1024
                    ],
                    "dtype": "float32"
                },
                {
                    "name": "batch_normalization_3/gamma",
                    "shape": [
                        64
                    ],
                    "dtype": "float32"
                },
                {
                    "name": "batch_normalization_3/beta",
                    "shape": [
                        64
                    ],
                    "dtype": "float32"
                },
                {
                    "name": "batch_normalization_3/moving_mean",
                    "shape": [
                        64
                    ],
                    "dtype": "float32"
                },
                {
                    "name": "batch_normalization_3/moving_variance",
                    "shape": [
                        64
                    ],
                    "dtype": "float32"
                },
                {
                    "name": "batch_normalization_4/gamma",
                    "shape": [
                        64
                    ],
                    "dtype": "float32"
                },
                {
                    "name": "batch_normalization_4/beta",
                    "shape": [
                        64
                    ],
                    "dtype": "float32"
                },
                {
                    "name": "batch_normalization_4/moving_mean",
                    "shape": [
                        64
                    ],
                    "dtype": "float32"
                },
                {
                    "name": "batch_normalization_4/moving_variance",
                    "shape": [
                        64
                    ],
                    "dtype": "float32"
                },
                {
                    "name": "batch_normalization_5/gamma",
                    "shape": [
                        128
                    ],
                    "dtype": "float32"
                },
                {
                    "name": "batch_normalization_5/beta",
                    "shape": [
                        128
                    ],
                    "dtype": "float32"
                },
                {
                    "name": "batch_normalization_5/moving_mean",
                    "shape": [
                        128
                    ],
                    "dtype": "float32"
                },
                {
                    "name": "batch_normalization_5/moving_variance",
                    "shape": [
                        128
                    ],
                    "dtype": "float32"
                },
                {
                    "name": "batch_normalization_6/gamma",
                    "shape": [
                        128
                    ],
                    "dtype": "float32"
                },
                {
                    "name": "batch_normalization_6/beta",
                    "shape": [
                        128
                    ],
                    "dtype": "float32"
                },
                {
                    "name": "batch_normalization_6/moving_mean",
                    "shape": [
                        128
                    ],
                    "dtype": "float32"
                },
                {
                    "name": "batch_normalization_6/moving_variance",
                    "shape": [
                        128
                    ],
                    "dtype": "float32"
                },
                {
                    "name": "batch_normalization_7/gamma",
                    "shape": [
                        128
                    ],
                    "dtype": "float32"
                },
                {
                    "name": "batch_normalization_7/beta",
                    "shape": [
                        128
                    ],
                    "dtype": "float32"
                },
                {
                    "name": "batch_normalization_7/moving_mean",
                    "shape": [
                        128
                    ],
                    "dtype": "float32"
                },
                {
                    "name": "batch_normalization_7/moving_variance",
                    "shape": [
                        128
                    ],
                    "dtype": "float32"
                },
                {
                    "name": "batch_normalization_8/gamma",
                    "shape": [
                        128
                    ],
                    "dtype": "float32"
                },
                {
                    "name": "batch_normalization_8/beta",
                    "shape": [
                        128
                    ],
                    "dtype": "float32"
                },
                {
                    "name": "batch_normalization_8/moving_mean",
                    "shape": [
                        128
                    ],
                    "dtype": "float32"
                },
                {
                    "name": "batch_normalization_8/moving_variance",
                    "shape": [
                        128
                    ],
                    "dtype": "float32"
                },
                {
                    "name": "batch_normalization_9/gamma",
                    "shape": [
                        256
                    ],
                    "dtype": "float32"
                },
                {
                    "name": "batch_normalization_9/beta",
                    "shape": [
                        256
                    ],
                    "dtype": "float32"
                },
                {
                    "name": "batch_normalization_9/moving_mean",
                    "shape": [
                        256
                    ],
                    "dtype": "float32"
                },
                {
                    "name": "batch_normalization_9/moving_variance",
                    "shape": [
                        256
                    ],
                    "dtype": "float32"
                },
                {
                    "name": "conv2d_1/kernel",
                    "shape": [
                        3,
                        3,
                        3,
                        32
                    ],
                    "dtype": "float32"
                },
                {
                    "name": "conv2d_1/bias",
                    "shape": [
                        32
                    ],
                    "dtype": "float32"
                },
                {
                    "name": "conv2d_10/kernel",
                    "shape": [
                        1,
                        1,
                        512,
                        512
                    ],
                    "dtype": "float32"
                },
                {
                    "name": "conv2d_10/bias",
                    "shape": [
                        512
                    ],
                    "dtype": "float32"
                },
                {
                    "name": "conv2d_11/kernel",
                    "shape": [
                        1,
                        1,
                        512,
                        512
                    ],
                    "dtype": "float32"
                },
                {
                    "name": "conv2d_11/bias",
                    "shape": [
                        512
                    ],
                    "dtype": "float32"
                },
                {
                    "name": "conv2d_12/kernel",
                    "shape": [
                        1,
                        1,
                        512,
                        512
                    ],
                    "dtype": "float32"
                },
                {
                    "name": "conv2d_12/bias",
                    "shape": [
                        512
                    ],
                    "dtype": "float32"
                },
                {
                    "name": "conv2d_13/kernel",
                    "shape": [
                        1,
                        1,
                        512,
                        1024
                    ],
                    "dtype": "float32"
                },
                {
                    "name": "conv2d_13/bias",
                    "shape": [
                        1024
                    ],
                    "dtype": "float32"
                },
                {
                    "name": "conv2d_14/kernel",
                    "shape": [
                        1,
                        1,
                        1024,
                        1024
                    ],
                    "dtype": "float32"
                },
                {
                    "name": "conv2d_14/bias",
                    "shape": [
                        1024
                    ],
                    "dtype": "float32"
                },
                {
                    "name": "conv2d_15/kernel",
                    "shape": [
                        1,
                        1,
                        1024,
                        4
                    ],
                    "dtype": "float32"
                },
                {
                    "name": "conv2d_15/bias",
                    "shape": [
                        4
                    ],
                    "dtype": "float32"
                },
                {
                    "name": "conv2d_2/kernel",
                    "shape": [
                        1,
                        1,
                        32,
                        64
                    ],
                    "dtype": "float32"
                },
                {
                    "name": "conv2d_2/bias",
                    "shape": [
                        64
                    ],
                    "dtype": "float32"
                },
                {
                    "name": "conv2d_3/kernel",
                    "shape": [
                        1,
                        1,
                        64,
                        128
                    ],
                    "dtype": "float32"
                },
                {
                    "name": "conv2d_3/bias",
                    "shape": [
                        128
                    ],
                    "dtype": "float32"
                },
                {
                    "name": "conv2d_4/kernel",
                    "shape": [
                        1,
                        1,
                        128,
                        128
                    ],
                    "dtype": "float32"
                },
                {
                    "name": "conv2d_4/bias",
                    "shape": [
                        128
                    ],
                    "dtype": "float32"
                },
                {
                    "name": "conv2d_5/kernel",
                    "shape": [
                        1,
                        1,
                        128,
                        256
                    ],
                    "dtype": "float32"
                },
                {
                    "name": "conv2d_5/bias",
                    "shape": [
                        256
                    ],
                    "dtype": "float32"
                },
                {
                    "name": "conv2d_6/kernel",
                    "shape": [
                        1,
                        1,
                        256,
                        256
                    ],
                    "dtype": "float32"
                },
                {
                    "name": "conv2d_6/bias",
                    "shape": [
                        256
                    ],
                    "dtype": "float32"
                },
                {
                    "name": "conv2d_7/kernel",
                    "shape": [
                        1,
                        1,
                        256,
                        512
                    ],
                    "dtype": "float32"
                },
                {
                    "name": "conv2d_7/bias",
                    "shape": [
                        512
                    ],
                    "dtype": "float32"
                },
                {
                    "name": "conv2d_8/kernel",
                    "shape": [
                        1,
                        1,
                        512,
                        512
                    ],
                    "dtype": "float32"
                },
                {
                    "name": "conv2d_8/bias",
                    "shape": [
                        512
                    ],
                    "dtype": "float32"
                },
                {
                    "name": "conv2d_9/kernel",
                    "shape": [
                        1,
                        1,
                        512,
                        512
                    ],
                    "dtype": "float32"
                },
                {
                    "name": "conv2d_9/bias",
                    "shape": [
                        512
                    ],
                    "dtype": "float32"
                },
                {
                    "name": "depthwise_conv2d_1/depthwise_kernel",
                    "shape": [
                        3,
                        3,
                        32,
                        1
                    ],
                    "dtype": "float32"
                },
                {
                    "name": "depthwise_conv2d_1/bias",
                    "shape": [
                        32
                    ],
                    "dtype": "float32"
                },
                {
                    "name": "depthwise_conv2d_10/depthwise_kernel",
                    "shape": [
                        3,
                        3,
                        512,
                        1
                    ],
                    "dtype": "float32"
                },
                {
                    "name": "depthwise_conv2d_10/bias",
                    "shape": [
                        512
                    ],
                    "dtype": "float32"
                },
                {
                    "name": "depthwise_conv2d_11/depthwise_kernel",
                    "shape": [
                        3,
                        3,
                        512,
                        1
                    ],
                    "dtype": "float32"
                },
                {
                    "name": "depthwise_conv2d_11/bias",
                    "shape": [
                        512
                    ],
                    "dtype": "float32"
                },
                {
                    "name": "depthwise_conv2d_12/depthwise_kernel",
                    "shape": [
                        3,
                        3,
                        512,
                        1
                    ],
                    "dtype": "float32"
                },
                {
                    "name": "depthwise_conv2d_12/bias",
                    "shape": [
                        512
                    ],
                    "dtype": "float32"
                },
                {
                    "name": "depthwise_conv2d_13/depthwise_kernel",
                    "shape": [
                        3,
                        3,
                        1024,
                        1
                    ],
                    "dtype": "float32"
                },
                {
                    "name": "depthwise_conv2d_13/bias",
                    "shape": [
                        1024
                    ],
                    "dtype": "float32"
                },
                {
                    "name": "depthwise_conv2d_2/depthwise_kernel",
                    "shape": [
                        3,
                        3,
                        64,
                        1
                    ],
                    "dtype": "float32"
                },
                {
                    "name": "depthwise_conv2d_2/bias",
                    "shape": [
                        64
                    ],
                    "dtype": "float32"
                },
                {
                    "name": "depthwise_conv2d_3/depthwise_kernel",
                    "shape": [
                        3,
                        3,
                        128,
                        1
                    ],
                    "dtype": "float32"
                },
                {
                    "name": "depthwise_conv2d_3/bias",
                    "shape": [
                        128
                    ],
                    "dtype": "float32"
                },
                {
                    "name": "depthwise_conv2d_4/depthwise_kernel",
                    "shape": [
                        3,
                        3,
                        128,
                        1
                    ],
                    "dtype": "float32"
                },
                {
                    "name": "depthwise_conv2d_4/bias",
                    "shape": [
                        128
                    ],
                    "dtype": "float32"
                },
                {
                    "name": "depthwise_conv2d_5/depthwise_kernel",
                    "shape": [
                        3,
                        3,
                        256,
                        1
                    ],
                    "dtype": "float32"
                },
                {
                    "name": "depthwise_conv2d_5/bias",
                    "shape": [
                        256
                    ],
                    "dtype": "float32"
                },
                {
                    "name": "depthwise_conv2d_6/depthwise_kernel",
                    "shape": [
                        3,
                        3,
                        256,
                        1
                    ],
                    "dtype": "float32"
                },
                {
                    "name": "depthwise_conv2d_6/bias",
                    "shape": [
                        256
                    ],
                    "dtype": "float32"
                },
                {
                    "name": "depthwise_conv2d_7/depthwise_kernel",
                    "shape": [
                        3,
                        3,
                        512,
                        1
                    ],
                    "dtype": "float32"
                },
                {
                    "name": "depthwise_conv2d_7/bias",
                    "shape": [
                        512
                    ],
                    "dtype": "float32"
                },
                {
                    "name": "depthwise_conv2d_8/depthwise_kernel",
                    "shape": [
                        3,
                        3,
                        512,
                        1
                    ],
                    "dtype": "float32"
                },
                {
                    "name": "depthwise_conv2d_8/bias",
                    "shape": [
                        512
                    ],
                    "dtype": "float32"
                },
                {
                    "name": "depthwise_conv2d_9/depthwise_kernel",
                    "shape": [
                        3,
                        3,
                        512,
                        1
                    ],
                    "dtype": "float32"
                },
                {
                    "name": "depthwise_conv2d_9/bias",
                    "shape": [
                        512
                    ],
                    "dtype": "float32"
                }
            ]
        }
    ]
}